04 CNN/model/cifar10_classifier.pth (torch, 329397 bytes, 10 tensors)

conv1.weight f4 [6, 3, 3, 3]
000000 13 37 8b 3e 1a 7e 1d 3f 85 12 97 3d 7a 6c 7d 3d
       0.27190456 0.6152054 0.07376579 0.06187103
000010 93 cd ae 3e 9e 65 8e be 22 1f 2b bd 37 46 01 3e
       0.34141216 -0.27811903 -0.041777737 0.12624441
000020 69 29 af be 94 ad 76 be 4d cc 4f 3d e9 8b d4 be
       -0.3421128 -0.24089652 0.050731946 -0.41512993
000030 ae 18 93 bd d6 41 56 3e 12 89 10 bf 0d 6e da bd
       -0.07182442 0.20923552 -0.5645915 -0.10665522
000040 72 94 16 be 30 cf bd be 89 dc da bd 53 83 b0 3e
       -0.14705065 -0.37072134 -0.10686595 0.34475192
000050 66 bf df 3c f8 96 60 3c 36 5c a5 3e 5d 00 31 be
       0.027312946 0.013707869 0.32296914 -0.17285295
000060 59 fd 06 3e 9d 6d 07 3e 24 1b af be 3d 69 53 3e
       0.13182582 0.13225408 -0.34200394 0.20645614
000070 39 26 d2 3e 48 46 2e 3e 55 94 ba 3d 5e 12 a9 3e
       0.41044787 0.17018998 0.09110323 0.33021826
000080 65 86 e1 3e a8 3a 02 bd 38 f6 66 bd e1 5e 80 3c
       0.44047847 -0.03179422 -0.056387156 0.015670242
000090 a4 42 fc 3c 84 c1 2d 3d 6b 02 b3 3c e5 0d fb be
       0.030793495 0.04242088 0.021851739 -0.49034038
0000a0 67 4b fa bd 81 2a f3 3c 35 bd 80 be b7 fd e1 be
       -0.12221413 0.029683353 -0.25144354 -0.44138882
0000b0 dc 11 5a be 61 de 1b be d8 e5 b0 3e c5 4c ec 3d
       -0.21295875 -0.1522155 0.34550357 0.1153808
0000c0 79 fd d5 be d1 eb 19 bc 92 ff 81 3e 90 5f 59 be
       -0.41794947 -0.009394602 0.25390297 -0.2122786
0000d0 63 d1 75 be b7 7e 8c 3e a6 37 ab bb 87 40 b9 3c
       -0.24005656 0.27440426 -0.0052251397 0.022613777
0000e0 2b 0e 9d bd 5a a7 ca bd 70 00 d9 bd d4 7f f0 bd
       -0.07668718 -0.09895201 -0.105957866 -0.11743131
0000f0 1a af ea 3c 58 59 12 be 3d 57 25 be a8 31 12 b9
       0.028647948 -0.14291894 -0.1614656 -0.00013942143
000100 ad 0b 24 be 00 62 a1 3d ce d8 e1 bc 60 98 2a 3d
       -0.16020079 0.0788002 -0.0275692 0.041649222
000110 9a e7 13 bd d3 bb d7 3c 37 ec bd 3d 70 5b 80 3d
       -0.036109544 0.026334679 0.0927357 0.0626744
000120 29 e1 b0 bc b8 71 28 ba 46 ae 29 3e 5c 91 ee bc
       -0.02159174 -0.0006425637 0.16570386 -0.029122047
000130 5e 1e 3a be 54 87 83 bd 3a 75 91 bd c8 2a 3e 3c
       -0.18175647 -0.06422296 -0.07102437 0.0116068795
000140 f9 ab ba bd 84 86 36 3d d9 b6 94 be e7 9b 70 be
       -0.091148324 0.044561878 -0.29045752 -0.23496972
000150 14 d6 23 bc 6c 76 47 3e e6 ad 11 bf 80 17 89 3d
       -0.009999771 0.19478768 -0.5690597 0.066939354
000160 ca e4 f0 3e 76 3b 4b bd dc ea 29 3e 38 f3 bb bc
       0.47049552 -0.049617253 0.16593498 -0.022943124
000170 ad 84 c3 bd bd f5 d9 3e 4b d8 c3 3e da 75 f3 be
       -0.0954679 0.42570296 0.38250956 -0.4755085
000180 4c 0e 70 3e e1 ff 08 3f d4 d7 84 3d 31 13 e2 bb
       0.23442954 0.5351544 0.064864784 -0.0068992605
000190 09 46 74 3d 77 da 6b be 77 c7 aa bd 6b 9c 51 3e
       0.059637103 -0.23032556 -0.08338826 0.20469825
0001a0 a9 bb e7 be 55 b6 3e be 6a 98 bf 3d 1a dc 9f be
       -0.4526036 -0.18624242 0.093552426 -0.31222612
0001b0 d3 90 f0 bc 83 5f 51 bd 2c de 1e be 98 4d 2d 3d
       -0.029365933 -0.051116478 -0.1551444 0.042310327
0001c0 9e 5f fa bd 8e ef b2 bd 08 8b ab 3b c5 42 ab bd
       -0.12225269 -0.08737098 0.0052350797 -0.08362345
0001d0 7f 64 90 3c f4 15 3a be 67 80 26 3e fb eb 60 bd
       0.017626045 -0.18172437 0.16259919 -0.05491255
0001e0 e3 9d 82 bd 63 a6 0e 3e c0 70 1a 3e f1 d2 b0 3d
       -0.06377771 0.13930659 0.15082073 0.08633984
0001f0 70 a9 b7 3c 0b 5f a7 bd ad 61 0e 3e f0 72 49 3e
       0.022419661 -0.08172425 0.13904448 0.19672751
000200 3e 40 9c 3e 3c c3 f4 bb 93 33 ad 3e ce 50 cc 3c
       0.30517763 -0.007469563 0.3382841 0.024940874
000210 d8 69 8a 3e ce 0d 37 3e cc b7 23 3e 0a b0 91 be
       0.27033877 0.1787636 0.15988082 -0.2845462
000220 24 2b 24 be f9 5f 31 be 53 1f 62 3b 6c ee 7f be
       -0.16032082 -0.17321767 0.0034503534 -0.24993294
000230 7c 5b 20 be 3e 48 e7 ba ed eb 27 be 0d 89 29 be
       -0.15659899 -0.0017645431 -0.16398592 -0.16556187
000240 23 1b 53 be e4 34 c2 be b4 83 82 be 5b dc 15 3e
       -0.2061582 -0.37930977 -0.25491107 0.1463484
000250 99 cf f7 3d d1 66 8c 3e 3f 21 22 3e 34 05 99 3e
       0.12100143 0.27422193 0.15832995 0.29886782
000260 8e b2 1c 3d 23 cd c8 bd dc 95 21 be c4 60 5d be
       0.03825622 -0.09804752 -0.15779823 -0.21618944
000270 6e f0 a3 bd 35 0a 2c 3e 97 71 98 3e 72 ad b7 3e
       -0.08004843 0.16800769 0.29774162 0.35874516
000280 1a 85 d0 3e 3a a0 c6 3e
       0.40726548 0.38794118

conv1.bias f4 [6]
000000 f7 c8 89 3d 93 04 c0 bd df 58 2b be 6e 6c 70 3d
       0.06727784 -0.093758725 -0.1673312 0.058697157
000010 d5 4d 94 be e9 73 0e 3e
       -0.2896563 0.13911404

conv2.weight f4 [16, 6, 3, 3]
000000 53 92 3d 3e 19 a9 e0 3d f2 57 95 bd fa c1 4b 3e
       0.1851285 0.10969753 -0.07292165 0.19898215
000010 8a 27 14 bf 97 f6 84 bd 18 30 4e be 62 aa a9 bd
       -0.5787283 -0.06492346 -0.20135534 -0.08284451
000020 16 d6 54 be af 81 76 be 36 ca cd bd 8b 21 13 3e
       -0.20784792 -0.24072908 -0.10048334 0.14368264
000030 58 8a 3e be da 41 3c 3c 4b 24 16 3e 4e e9 6c 3c
       -0.18607461 0.01149031 0.14662282 0.014459921
000040 88 a8 b2 3d a3 16 92 3d 6e 0e 4b 3d 82 06 a9 3d
       0.08723551 0.07133224 0.049574308 0.082531944
000050 04 75 51 bd 98 58 fa 3d d2 a6 69 bb 50 c7 53 3c
       -0.051136985 0.12223929 -0.0035652411 0.012925938
000060 93 c9 30 bc 1f 3a a9 bd 0b a9 b1 bb df 9b 1a 3d
       -0.010790247 -0.08263039 -0.005421763 0.037746307
000070 ab 44 17 be 9e 2b 82 be 79 08 b3 3d 3f 4c 13 bf
       -0.14772289 -0.25423902 0.087418504 -0.5753822
000080 45 4a 81 be 0e 36 9e 3d cc 61 88 be 3e d1 09 3d
       -0.25251976 0.07725154 -0.26637113 0.033646815
000090 bf a2 ef be 42 05 0a bf 2d bc b3 3e bf ea 13 bf
       -0.46803853 -0.5391427 0.35104504 -0.5778007
0000a0 ca 30 c9 3c 6b 7a d8 3e 9d 31 a8 be 92 7e a3 3e
       0.024559397 0.42280897 -0.32850352 0.31932503
0000b0 d8 1a c9 3e fd 58 c9 be cd ad 7e bd df cf e0 3e
       0.39278293 -0.39325705 -0.062177468 0.43908593
0000c0 f8 b4 ab be 73 b5 5e 3d 27 66 60 3e fb 6c 84 bd
       -0.33536506 0.054372262 0.21913968 -0.06466099
0000d0 3d 2a b4 bd fa e3 20 bd db 0d a5 be 35 a3 ae be
       -0.08797119 -0.039279915 -0.32237133 -0.34108892
0000e0 2e f0 3e be 5c ef f8 3c f5 4b fa be 6b d7 99 be
       -0.18646309 0.030387573 -0.48886076 -0.30047163
0000f0 9f 2c 18 be 6b bf 91 be 7e 1f df be db c2 58 bc
       -0.14860772 -0.28466353 -0.43578714 -0.013230051
000100 a7 f1 81 3e 67 fb 11 be ae a3 d9 3d f0 43 43 3e
       0.2537968 -0.14256059 0.106269225 0.19068885
000110 6b c8 75 3e aa 82 f8 bd 19 06 8f be b3 aa 9b 3d
       0.24002235 -0.12134297 -0.2793434 0.07600918
000120 66 14 b2 3d 90 e3 63 3c 77 4d 9b bd e7 be ce bd
       0.08695297 0.013909236 -0.075831346 -0.100950055
000130 57 55 c0 3d 51 90 51 3c 1f 58 b1 3d e1 5d 83 bd
       0.09391277 0.012790755 0.08659386 -0.0641439
000140 b8 6d 60 3d 64 30 04 be 2f ca 8f be 7b e1 b9 bd
       0.054792136 -0.12909085 -0.2808394 -0.0907621
000150 f6 b3 8f 3d bc 63 4a bd 3b be 80 bd 89 3d 83 3e
       0.07016747 -0.04941152 -0.062862836 0.25632885
000160 40 db 51 3e 0f 68 fd 3d d1 08 2f be 59 9e 48 be
       0.20493793 0.12373363 -0.17093207 -0.19591655
000170 98 77 88 bd 1f 39 14 bd 95 87 d3 bd 6f cc a2 3d
       -0.06663436 -0.036187287 -0.103285946 0.07949149
000180 cc 1c b2 3d a2 39 bf 3d 81 f0 81 bc 30 e5 10 bf
       0.08696899 0.093371645 -0.015861752 -0.5659971
000190 3d a1 75 bf 12 b2 97 bd 50 1f eb bd d1 98 e8 be
       -0.95949155 -0.07407011 -0.11480582 -0.4542909
0001a0 94 26 5c bf be b0 4c 3e c4 93 72 3d 84 f5 6c be
       -0.85996366 0.19989297 0.05922295 -0.23140532
0001b0 96 4a cb 3d f5 b3 6e bc 35 c2 33 3e 22 96 02 39
       0.099263355 -0.014569272 0.17554553 0.00012453695
0001c0 8b ff b5 3c ff 74 7c 3d 6f 20 01 bf 26 aa 80 be
       0.022216579 0.061635014 -0.50440115 -0.25129813
0001d0 a9 dd 29 be 0f c0 0f be 79 31 f0 bd e1 1d 7e be
       -0.16588463 -0.14038108 -0.11728186 -0.24816085
0001e0 0e d2 2f be 50 cc 9a bd c7 28 d3 3d d6 6a 41 be
       -0.17169973 -0.07558501 0.10310512 -0.18888411
0001f0 e7 5e 71 bd 25 f7 59 3d 16 52 08 bd 96 62 9a bd
       -0.058928397 0.05321421 -0.03328141 -0.07538335
000200 d8 23 3e 3d 0c 71 9a 3d f2 a5 89 bd 3c bb 3c bd
       0.046420902 0.07541093 -0.06721105 -0.046076998
000210 01 bc 17 3e 5e 00 4d bd 80 4e bc 3c 88 ff 02 be
       0.14817812 -0.05004918 0.02298665 -0.1279279
000220 28 bf 58 bf 7e 0b 04 bf 48 4f e2 3d 63 90 91 3e
       -0.8466668 -0.51580036 0.11050278 0.2843047
000230 a1 a6 05 bf e9 ba 35 3e 73 2c 00 3f 36 c0 08 3f
       -0.5220738 0.17747082 0.50067824 0.5341829
000240 d9 e1 e1 bd ed 49 2a be c6 04 4b be f6 dc 20 ba
       -0.11029405 -0.16629763 -0.1982604 -0.00061364414
000250 d9 f2 8d be d1 8e 45 be 6c af 56 3e 43 35 0e 3e
       -0.2772434 -0.19292761 0.20965356 0.13887505
000260 c0 80 a8 be 33 36 10 3e c4 1b 5a be 4b 9b 90 3d
       -0.32910728 0.14083175 -0.21299654 0.0706087
000270 31 30 59 3e 38 0b cc 3d 35 eb a9 be 5e 4b 3f 3d
       0.2120979 0.09963077 -0.3318726 0.046702735
000280 40 0d 07 3e 96 e2 e6 3d 77 f7 35 bf 94 87 a3 3d
       0.13188648 0.112736866 -0.71080726 0.07984844
000290 ee bd 69 3e 92 66 2f be 24 f7 3f 3e 7b f2 bb 3e
       0.22826359 -0.17128971 0.1874662 0.36708435
0002a0 6a 59 fd 3e ce 21 b5 bc dc cf 9e be cd 8c ab be
       0.4948228 -0.022110846 -0.3101796 -0.3350586
0002b0 b0 4f 76 3b 84 ce 43 3e 7a 26 0f be 8d 83 b3 be
       0.0037584119 0.19121748 -0.13979521 -0.35061303
0002c0 e5 77 62 bd 16 0a 69 3e 39 cf 8a be b7 c8 fb be
       -0.05529012 0.22757754 -0.27111223 -0.4917657
0002d0 ec 87 61 3d 68 0d 70 bc 2f 35 f0 3c 94 fb 07 3e
       0.055061266 -0.014651634 0.029322235 0.13279563
0002e0 74 ea 96 3d c4 7f da bc a0 9b 09 bc 65 2b 92 bd
       0.07368937 -0.026672252 -0.00839892 -0.07137183
0002f0 20 0f ba 3c 37 7a 74 3e c3 63 d2 bd 34 94 c1 3d
       0.02271229 0.23874746 -0.10272934 0.09452096
000300 e7 c5 0b 3e 82 87 b8 3c 3c e6 c6 3c fb 6c f1 bd
       0.13649713 0.022525553 0.024279706 -0.117883645
000310 29 79 71 bd 8d bf 01 bd a5 6e 01 3e 7d 31 c0 bc
       -0.058953438 -0.031676818 0.12639864 -0.023461098
000320 5b 64 17 be 25 84 90 3e 8c 87 88 3c f7 99 21 bf
       -0.14784376 0.28225818 0.016666196 -0.63125557
000330 fb 8f f0 3e 0a 65 8b be 4d ff fd be bc b0 6e 3e
       0.46984848 -0.27225524 -0.49608842 0.23309606
000340 6e 1e 11 bd 3e 6b 97 be a3 2b 3b 3e 58 61 a7 be
       -0.03542941 -0.29574007 0.18278365 -0.32691455
000350 19 2f 15 be 0c 2a bd be 7d 34 db bd ec c2 9a 3e
       -0.14568748 -0.36946142 -0.10703371 0.3022684
000360 85 d5 ba bd 99 b9 95 3d d2 d3 b5 3d 9f c5 82 be
       -0.09122757 0.073107906 0.08878292 -0.25541398
000370 0d 07 38 bd c4 2a 04 3e a1 10 95 3d 9f 10 83 bc
       -0.0449286 0.12906939 0.07278562 -0.015999136
000380 7b 5a 43 3d 3f ad 81 bd 32 4b 85 bd 39 99 9c 3d
       0.04769371 -0.06331872 -0.06508483 0.076464124
000390 41 20 9b 3e 0f 7b 11 3e 5d 6d 46 3d 96 b2 e7 bd
       0.30298045 0.142071 0.04844414 -0.113133594
0003a0 1f e8 b9 be fd e4 96 be b0 81 7a 3c 00 f5 76 3b
       -0.36309907 -0.2947158 0.015289709 0.0037682652
0003b0 66 0a b4 3d 84 c9 96 bc 3e 89 8c 3d d0 cd ee 3c
       0.08791046 -0.018406637 0.06862114 0.029150873
0003c0 ed 48 a7 3c 48 44 f3 3d 90 f8 93 3d 00 a3 e9 3d
       0.020420516 0.11878258 0.07225144 0.11408043
0003d0 73 71 8c 3e 47 81 8a bd 39 d1 08 bf db 08 b6 be
       0.27430305 -0.06762939 -0.5344425 -0.3555363
0003e0 d8 8a 60 be 3f 0f 23 3c bf b3 54 3d 3a 68 0a 3e
       -0.21927965 0.009952365 0.05192923 0.13516322
0003f0 4e fe 60 3e e4 ae 2a bb d1 11 87 bd d4 1a 94 3d
       0.2197201 -0.0026044184 -0.06595195 0.072316796

conv2.bias f4 [16]
000000 0d d9 17 3e 21 44 8c 3e e0 0b 31 3d be 5c 76 3e
       0.14828892 0.27395728 0.043224216 0.24058816
000010 df ef 1c bd fc 93 97 bd a8 1e dc bd 17 95 e2 3d
       -0.038314696 -0.07401273 -0.10748035 0.11063593
000020 4e 98 a6 3d 8d 7e 8a 3d d1 b0 2c be 40 2a ba 3e
       0.081345186 0.06762419 -0.16864325 0.3636036
000030 e6 b6 90 be b0 8d d0 bd d6 a7 27 be 09 29 84 3d
       -0.2826454 -0.10183275 -0.16372618 0.06453139

fc1.weight f4 [120, 576]
000000 64 35 32 3c f2 5f 70 bb fe 73 32 bd d1 52 a0 bc
       0.010876987 -0.0036678282 -0.04356765 -0.01957074
000010 f9 5f 11 bd c5 75 78 3c e0 e1 86 bc 21 01 06 bd
       -0.035491917 0.015164797 -0.016465127 -0.03271592
000020 2f b7 14 bd 19 85 26 bc 56 1c bb 3c 0f fe d0 3c
       -0.03630751 -0.010163569 0.02284066 0.02551177
000030 bb 2d 8b 3c 52 25 b6 3c f1 06 2b 3c cf aa 29 bc
       0.01698958 0.022234593 0.010438667 -0.010355665
000040 47 22 a3 bb be 23 e7 bc 94 c2 34 bc a8 8e 87 bb
       -0.0049784514 -0.028215285 -0.011032719 -0.004136879
000050 19 a0 36 bd f0 e3 18 bb 6f 35 40 bd 99 39 89 bc
       -0.044586275 -0.002332922 -0.04692596 -0.016751098
000060 24 cc 0b 3c 81 a3 0a bc 6a c3 96 bc 01 5c 9d bc
       0.008532558 -0.008461834 -0.018403728 -0.01920891
000070 24 51 db bc 7e 59 08 bd 6d b0 12 bd df e9 bb bc
       -0.02677209 -0.03328847 -0.035812784 -0.022938667
000080 8d e2 44 3c c8 2c 5b bd e3 e4 9f bc d6 a5 dc bc
       0.012016905 -0.053509504 -0.019518321 -0.026934545
000090 7d 8f e0 3b 93 05 c3 bc d1 99 2b bd 98 77 9b 3b
       0.0068530426 -0.023806369 -0.041894738 0.0047444813
0000a0 d6 e7 4d 3c 2e 14 07 bd e8 70 31 bd 1b 4a 9a 3b
       0.012567481 -0.03297823 -0.043320566 0.004708541
0000b0 17 8f b8 3a be 18 af 3a ef 6e 4b bc 70 a3 1d 3c
       0.001408073 0.0013358814 -0.012416585 0.009621486
0000c0 2b 5f c4 bc e3 0b 07 3d 74 9e ba 3c 36 df ee bc
       -0.02397116 0.03297032 0.022780634 -0.02915917
0000d0 b5 f6 37 bb 9a 42 00 3d 9b 89 20 3b d0 c7 8c 3a
       -0.0028070633 0.031313516 0.0024496082 0.0010740701
0000e0 b3 2a 33 bd f3 7b 1a 3c 06 f3 45 bc a7 ed a2 bc
       -0.043741893 0.009428966 -0.012081867 -0.019888712
0000f0 38 62 cf bc c7 8c 38 bd 1b 0d 32 bc b9 a9 03 bd
       -0.025315389 -0.04505613 -0.010867382 -0.032144282
000100 5d 8f 4f bd f4 84 eb bc b1 61 db bc c2 a0 0e bb
       -0.05067383 -0.02874992 -0.026779981 -0.00217633
000110 e0 a4 b8 bc c5 c3 49 bc 76 6a 87 bc b7 7d 50 3c
       -0.022539556 -0.0123147415 -0.016530257 0.012725285
000120 cf 08 94 bc 33 51 e1 b9 1f 0c 18 bc d3 73 a6 bc
       -0.018070607 -0.00042975842 -0.009280234 -0.020318901
000130 9e 56 f9 bc 9a 2c bc bc 72 2f be ba 48 2d 98 bd
       -0.03043681 -0.022970486 -0.0014509989 -0.07430512
000140 5c 8b 29 39 8c d6 81 bd 4b 21 1f 3d 7f be 87 3c
       0.00016169011 -0.0633975 0.03885011 0.016570328
000150 80 73 c4 39 76 ba 1d bd 04 90 70 bd 43 0a 6b bd
       0.00037470087 -0.0385079 -0.058731094 -0.057382833
000160 cb 5a ad bc 69 23 6f bd 70 db 07 bb 46 e7 0d 3c
       -0.021161458 -0.05838338 -0.002073016 0.008661097
000170 88 3f aa bb 1c e2 42 bc 97 dd 60 bb 67 4f 47 ba
       -0.005195562 -0.011894729 -0.0034311765 -0.00076030794
000180 bc b5 57 3c 56 91 34 3b 73 17 a7 3c 4f 1c 90 3c
       0.013165887 0.0027552447 0.020396924 0.017591624
000190 e3 bc cf 3b 50 a4 8f bc a1 1c d9 bc 8f 59 34 bc
       0.0063396557 -0.017534405 -0.02650291 -0.011007681
0001a0 bb 8b 20 3c a5 f7 b2 bb 5d d9 32 bc ac f8 57 3c
       0.009798939 -0.0054616504 -0.010916081 0.013181847
0001b0 a7 6f fb bc 0f 97 46 bd a9 b6 05 bd 33 d1 d0 bb
       -0.030692888 -0.048483904 -0.0326449 -0.0063725947
0001c0 d2 fd 0e bd c2 7e 59 bd 33 3c fa bc df fd 81 bd
       -0.03491003 -0.0530994 -0.030546283 -0.0634725
0001d0 dd 47 5f bd 33 f8 b1 3c 5c 54 0e bd c3 fd cf bb
       -0.054511894 0.021724796 -0.03474842 -0.0063473894
0001e0 23 7d 1d bc 2b 08 f0 3b e1 6e 8b bc 72 de 57 bb
       -0.009612354 0.0073251924 -0.017020645 -0.0032938984
0001f0 5b 98 0a bb 4c c3 17 bd 9e fe 04 bd 50 e0 90 3c
       -0.002114794 -0.037051484 -0.032469384 0.017685086
000200 f3 af 0b bc 71 d1 20 bd d3 0e 0f 3c 86 90 5a 3b
       -0.008525836 -0.03926224 0.008731562 0.0033350303
000210 4c cc 0f bd 89 a2 d8 3b d4 06 25 3b 98 e7 98 3c
       -0.035106942 0.0066111726 0.0025181072 0.01866512
000220 fb ca d6 3a 26 85 19 bc 62 44 ab bb 6c 7d 00 bd
       0.0016387397 -0.009370124 -0.0052266577 -0.03136961
000230 ee bb 5d bc 96 9a fa 3c 30 62 4b bc c9 99 09 bb
       -0.013533575 0.03059129 -0.012413546 -0.0020996204
000240 d4 3c 05 bd aa 5c b1 bc 64 a8 cc 3c 95 f7 23 bd
       -0.032528713 -0.021650631 0.024982639 -0.040031034
000250 39 da 15 bc ad 16 4c 3c ea aa d0 3b 03 e6 94 3c
       -0.009146267 0.012456578 0.006368031 0.018176084
000260 e5 79 58 bd 47 6b bb 39 ed 85 c3 3c e1 6a 2f bc
       -0.052850623 0.00035747347 0.023867572 -0.010706634
000270 e5 f2 8c 3c 10 fb 4a bc b0 bb e6 3c 14 b4 22 bd
       0.017205665 -0.0123889595 0.028165668 -0.039722517
000280 35 c2 e7 3c 88 1c 7d bc 9a 9c ab 3b b8 30 5c bb
       0.028290847 -0.015448697 0.005237174 -0.0033598375
000290 cf 75 0f 3b 6e 06 1b 3c 1e eb 14 3c 95 7c 16 3c
       0.0021890288 0.009461982 0.009089259 0.009184976
0002a0 fe 9d d1 bc 5c ba 88 3c 07 00 19 bd 27 47 0c bd
       -0.025588032 0.016690426 -0.03735354 -0.034247544
0002b0 0e 69 be bc a4 45 09 bd b1 3f 11 bd 0f 5c 40 3c
       -0.023243453 -0.03351368 -0.03546113 0.0117406985
0002c0 96 e3 db 39 14 ca 4f 3c 3e 04 b2 3c 99 32 45 bd
       0.000419405 0.0126824565 0.021730538 -0.048143957
0002d0 72 6e fa 3c 98 97 95 3b 2a 5c 58 bd 52 1e d4 3c
       0.030570243 0.0045651905 -0.05282227 0.025893364
0002e0 4f 38 af bb e5 80 3f 3b c6 d4 5f bd 17 44 48 bb
       -0.0053472887 0.0029221114 -0.054646276 -0.0030558163
0002f0 90 04 cf bc 94 ef 06 bc 07 32 0e bd f8 c9 b2 bc
       -0.02527073 -0.008235831 -0.03471568 -0.021824822
000300 fe e4 b2 3c 60 90 de 3a 33 63 19 bd fc b9 4c bd
       0.021837708 0.0016980283 -0.03744812 -0.049982056
000310 e0 8a db ba ba 84 54 bc a7 1b 1f 3d 28 01 b4 bb
       -0.0016749762 -0.012971098 0.03884473 -0.005493302
000320 80 2e f9 3a 28 db 09 bd 6b b7 07 bd 9f 9e 14 3a
       0.001901105 -0.03365627 -0.033133905 0.00056693883
000330 d0 e4 01 3c 58 a2 b3 bc 40 41 b9 bb 10 6f 30 bb
       0.007928088 -0.021927997 -0.0056535304 -0.0026921667
000340 ac 8a 11 3c 01 49 c1 bc 94 15 15 bc 0e eb f2 3c
       0.00888316 -0.023594381 -0.009099383 0.029653098
000350 68 c5 27 bd 06 fa 7d bc c0 23 78 3c 70 d8 35 bb
       -0.040959746 -0.015501505 0.015145242 -0.0027747415
000360 84 8e 4c bc 36 06 69 bd b7 fa 66 bd 4d 8a 2c bd
       -0.01248515 -0.05689069 -0.056391444 -0.04212408
000370 ad dd 63 bd ac 70 3f bd 6c cc cb 3a 43 69 93 bd
       -0.05563133 -0.04673831 0.0015548593 -0.071978115
000380 2b 69 51 bc 82 4c 0c bd 40 10 1e bc ac 32 3b bd
       -0.012781422 -0.03425265 -0.009647429 -0.04570262
000390 70 42 1d bb df 3d 24 bd c0 52 1a bd c6 c3 dc bb
       -0.0023995899 -0.040098067 -0.037676573 -0.006737205
0003a0 5c 35 ff bc 80 44 12 bd 7e 43 c2 bc 48 e8 c0 3b
       -0.031153373 -0.035709858 -0.023713823 0.005887065
0003b0 ff d3 15 3d 40 ff 12 bb 3e cc 8b bd fe 8d 9a bd
       0.03657913 -0.0022429973 -0.068260655 -0.07546614
0003c0 b8 99 a0 bc e6 c1 31 bc 98 69 d0 3b d6 0e af bc
       -0.019604549 -0.010849452 0.006360244 -0.021369379
0003d0 0c 75 6d bc cd a9 18 bb 3a 6a ad 3c 3e 9e 0f bd
       -0.014493238 -0.0023294569 0.021168817 -0.03506302
0003e0 d7 fc 1d bd 59 5b 23 3d b8 52 86 bb a4 be b0 bc
       -0.038571205 0.039882038 -0.0040992163 -0.02157528
0003f0 37 c0 cb bc e6 cb 11 bd 3c f1 1a bc 2a 30 44 bc
       -0.024871929 -0.035594843 -0.009456929 -0.011974374

fc1.bias f4 [120]
000000 22 cb cd 3c 93 12 02 bc 68 eb 46 3c b4 3d f2 bc
       0.025121275 -0.007938999 0.012141086 -0.029570438
000010 a3 72 96 bd 28 56 73 bc db 42 5f bd 41 de 88 bd
       -0.07346084 -0.014852084 -0.054507118 -0.066830166
000020 3d c0 08 bc 73 03 32 bd 0d 10 81 bd 38 81 ca bd
       -0.008346614 -0.04346032 -0.063018896 -0.09887928
000030 e9 db 7a bd 4c 33 17 3f 64 0f 95 bb a2 96 0b bb
       -0.06124488 0.5906265 -0.004548954 -0.00212995
000040 5b a4 02 be 30 c1 0f 3d 0f 42 01 3f 97 81 86 bc
       -0.12758009 0.035096347 0.5049142 -0.016419215
000050 ce 6e ae bc 43 ff 67 bd c5 a1 50 bd 0e 81 c1 3e
       -0.02129307 -0.05663992 -0.050935525 0.37793773
000060 87 c0 ba 3e c1 3e 8a 3d d7 04 4a 3e 9b 30 2f bc
       0.36475012 0.067502506 0.19728409 -0.010692741
000070 90 bd a2 3b fd 86 67 bd 5b 5e 62 bd 92 e5 99 bd
       0.0049664453 -0.05652522 -0.055265766 -0.0751449
000080 62 19 db 3c 37 10 05 bd 41 8b 8d bd 89 b3 02 3d
       0.026745502 -0.032486167 -0.06911326 0.0319095
000090 47 df 92 bd 27 d3 b9 3c 7a 47 e3 3e 5e 4f e3 bc
       -0.07171493 0.022683693 0.4439047 -0.027747806
0000a0 52 e8 25 bc 34 44 a0 bd 55 eb 6f 3e 01 9f fa bd
       -0.01012619 -0.07825509 0.23429616 -0.12237359
0000b0 29 19 e3 bc 61 97 96 bc 0d 65 2a be 3f fb 87 bd
       -0.027721958 -0.01838273 -0.1664011 -0.06639718
0000c0 1b 60 87 3c 1e 85 15 be 85 f3 ef 3b f5 92 8d 3b
       0.016525319 -0.14601561 0.007322731 0.004320497
0000d0 d7 dc e7 bb 6e 94 26 bd 14 a5 6d be 1d 04 87 3d
       -0.0070758867 -0.040668897 -0.23207504 0.065925814
0000e0 bc c2 a1 be 0f 13 7f bd d5 aa 04 bd af 3a ca 3d
       -0.31593883 -0.062274035 -0.03238948 0.09874474
0000f0 5a ff 59 3e f1 b8 bd 3c a8 e6 90 3a 95 2f 81 3d
       0.21288815 0.023159476 0.0011055069 0.06307904
000100 df 59 3c 3f 5f 66 33 bb d3 1b ad 3c 37 f3 7a 3d
       0.7357463 -0.002737425 0.021131432 0.061267104
000110 39 98 b5 3a 56 31 9d bc 64 c4 aa bd de ca e9 3e
       0.001385457 -0.019188564 -0.0833824 0.45662588
000120 40 a1 3e bd cb 45 43 bd 8e 0c 3c bd 42 64 90 3e
       -0.0465405 -0.04767398 -0.04591041 0.2820149
000130 bb c7 e9 3c 8d 31 e2 bc 8b e5 07 3e 10 4e 54 bd
       0.028537622 -0.027611518 0.13271157 -0.05183226
000140 63 f3 11 3d d5 68 da be e1 54 b0 bd 0a 86 80 bd
       0.035632502 -0.42658105 -0.08609939 -0.06275566
000150 f9 ad 15 3d dc c9 86 be c2 9f 3c bd 15 f6 6c 3e
       0.036542866 -0.2632588 -0.046050794 0.23140748
000160 b1 7f 17 3e d2 98 51 bd 78 c4 a2 bb 9a 60 83 3e
       0.14794804 -0.05117113 -0.0049672686 0.2565964
000170 68 30 e6 3d 19 7d 26 bd 4e 46 13 3f 57 72 99 bd
       0.112397015 -0.040646646 0.5752915 -0.07492512
000180 77 24 87 bc 6d 14 54 bd 8c 98 3a be f1 65 81 be
       -0.01649688 -0.051777292 -0.18222255 -0.25273088
000190 2a 95 b2 be 87 f1 b5 be b2 27 b6 3e ee 0d 32 bd
       -0.34879428 -0.35535833 0.3557716 -0.043470316
0001a0 4e db ca bd 32 98 bf bc 98 56 74 bd 47 b4 d1 3d
       -0.0990511 -0.023388002 -0.059652895 0.10239463
0001b0 bd 3c 88 bd 24 10 0f 3f 73 51 48 bd ae 5e 0a be
       -0.0665221 0.55884004 -0.0489058 -0.1351268
0001c0 15 84 88 bc a8 bd 4f bd bc da b9 bd 49 cb 17 bd
       -0.016664544 -0.05071798 -0.090749234 -0.037059102
0001d0 13 51 37 bd 5b 5c f9 bc ad 7f 97 bc 69 6d 9e bd
       -0.044755053 -0.030439546 -0.018493498 -0.07735712

fc2.weight f4 [84, 120]
000000 31 55 0a 3c 2b 92 26 bd f6 16 20 3d 3d f4 59 bd
       0.008443163 -0.04066674 0.039084397 -0.05321144
000010 ca d9 02 3d 73 53 08 3d c0 bf 2c bc bb 7e 41 bd
       0.03194598 0.03328271 -0.010543764 -0.04724
000020 79 2e ad 3b fc c7 9a bc 62 d4 7c 3c a1 5b ed bc
       0.005285081 -0.018894188 0.015431495 -0.028974356
000030 19 83 3b bc 44 9d 0b be 31 72 2d 3e 19 17 f8 3c
       -0.01144483 -0.13634211 0.16938092 0.030284451
000040 71 58 18 3d ed ef b4 bd 8f dd a1 3e b9 64 a3 3c
       0.03719372 -0.08834825 0.31614348 0.01994549
000050 e1 33 93 bd 09 af 06 3d 80 8c 78 3c 0e 51 d7 be
       -0.071876295 0.03288177 0.015170217 -0.42054027
000060 8e cf 4f 3d c9 75 cd bd 39 fd 89 be b4 38 62 3a
       0.05073505 -0.10032231 -0.26951006 0.0008629665
000070 e9 b5 aa bd af bb 33 3d f5 56 93 39 28 9d 54 bc
       -0.08335478 0.04388016 0.00028102813 -0.012976922
000080 9f ca 43 3d 2c 90 6d 3d ed d6 92 bd a7 35 1b 3e
       0.047800656 0.05799882 -0.071699 0.15157185
000090 12 5c a0 3d f7 76 6b 3d c1 33 3c be a6 06 ad bd
       0.07830061 0.0574865 -0.18379118 -0.08448534
0000a0 23 0b 6b bd 8b 6a 52 3d 80 65 b9 3e 02 b8 04 3c
       -0.057383668 0.05137114 0.3621025 0.0081005115
0000b0 6d e0 bb 3c c7 b5 4c 3d c9 1b 75 be 72 e1 d7 3d
       0.022934163 0.049978044 -0.2393638 0.10541047
0000c0 2d b7 9f bc 74 ae 30 bd 4e cf 8b 3d 11 1a 8e bc
       -0.019496525 -0.04313512 0.068266496 -0.017346414
0000d0 89 c4 92 3d 02 0f 6c 3d 1c 15 c0 bc 16 f5 2b 3c
       0.07166392 0.0576315 -0.023447566 0.010495445
0000e0 af b8 08 3c 0a 1a ab bd 93 87 38 bd ab 23 bf 3d
       0.008344813 -0.08354576 -0.04505117 0.09332975
0000f0 01 ee a9 3e ef 99 14 3d 03 2a 1f 3e c5 31 09 bf
       0.33189395 0.036279615 0.1554337 -0.5359157
000100 4e e2 81 3e 4d cb e6 bc 0c 68 6c 3d 6f 4a eb bd
       0.2536797 -0.028173113 0.057716414 -0.114888065
000110 c6 14 ae bc 88 b6 80 3c 05 0e 33 3e 6f 73 81 3d
       -0.02125014 0.015712038 0.17485817 0.06320845
000120 c1 7e bc 3d 2b 21 d5 3d 8a 9f 91 3b 35 00 9f 3d
       0.09203864 0.10406717 0.0044440674 0.07763711
000130 f8 29 63 3d 2a b0 37 bd 84 94 42 bc a2 e9 a0 bd
       0.055459946 -0.044845738 -0.011876229 -0.07857062
000140 4f 01 b2 bc fb 8b bd bd cc b4 9a bc 87 d7 69 bf
       -0.02172914 -0.09255215 -0.018885039 -0.91344494
000150 5f d0 f4 3d c7 64 c3 3d e0 de 29 3d 2c fd ee bd
       0.11953806 0.09540706 0.041472316 -0.116693825
000160 5b 91 fd 3b a7 7d 09 3c 7a 4c d6 3d 98 da c6 3e
       0.007738275 0.008391774 0.104638055 0.3883865
000170 e4 ba c3 bc 5e 0a ea bc 58 0d 0a bd 04 c4 9d bc
       -0.023892827 -0.028569397 -0.03370413 -0.019258507
000180 b6 1f 43 be 4c ae 54 bb 3a dc 1f be 63 f9 d0 3d
       -0.19055066 -0.0032452522 -0.15611354 0.10203817
000190 6d 60 34 be 98 5e 17 be b7 b9 ab be 99 5e a3 bd
       -0.17614909 -0.14782178 -0.33540127 -0.079770274
0001a0 88 e5 7b bd c5 73 22 3c 9e a1 d4 3d 49 c8 cc be
       -0.061498195 0.009915297 0.103823885 -0.39996555
0001b0 bb 0b e3 3c 67 57 89 3d 0a d9 b3 bd 51 45 c4 bd
       0.027715554 0.06706124 -0.08781631 -0.095835336
0001c0 b5 cb 92 3b 75 7e e0 3a f4 b7 28 3d 5a 24 85 3d
       0.00447985 0.0017127531 0.041191056 0.06501074
0001d0 c5 ce a9 3b 7d b7 08 bd e1 0d 47 bd cc 60 9e bd
       0.0051821196 -0.033378113 -0.04859722 -0.07733306
0001e0 c1 6a 83 bb 3a ba 4e bd 7e 69 11 3d 53 0b 03 3d
       -0.004010529 -0.05047057 0.035500996 0.03199322
0001f0 25 50 b6 bd a5 8a ba bd 2e 07 35 3d dc 0d 1a bd
       -0.08902005 -0.091084756 0.0441963 -0.037610874
000200 87 f1 a3 bd e0 ea a0 3c fe 25 ef 3c e7 16 ba 3b
       -0.08005052 0.019643247 0.02919292 0.0056789997
000210 58 a6 a9 bc 7f cc 84 3e d3 6a 31 bf 59 e5 86 3d
       -0.020709202 0.25937268 -0.69303626 0.06586713
000220 e3 b8 a7 3c 38 0a 66 be 4f e8 d5 3d 53 97 69 3d
       0.020473903 -0.22464836 0.104447 0.05702908
000230 d4 da 70 bd e9 fd 94 bd f3 05 9c bd 5f 5f f5 bd
       -0.05880244 -0.07274992 -0.07618322 -0.11981081
000240 72 1e 50 3e c6 90 bb be d5 74 1f be a5 4d 86 3c
       0.20324114 -0.3663389 -0.15571912 0.016394446
000250 48 ea 91 3d 95 45 d6 bc 5c 6b 95 bd 48 b5 99 3d
       0.07124764 -0.026156226 -0.07295868 0.0750528
000260 1c 4e 98 bd 5d 09 83 3b 2d 55 e3 bc 83 c8 8b be
       -0.07436773 0.003998919 -0.027750576 -0.27301416
000270 d7 6f 9a bd ee 48 ff ba 51 9f 0b bf 6e a3 ae 3d
       -0.07540863 -0.0019476691 -0.5453997 0.085272655
000280 0e 90 cc 3b c1 c5 05 be c8 5c a6 3c 80 97 94 3d
       0.0062427586 -0.13063718 0.020307913 0.07255459
000290 4d 7f 8f bd c9 4c 21 3c 29 81 26 3e 25 e7 a2 ba
       -0.070067026 0.009844967 0.16260208 -0.0012428506
0002a0 91 a4 c0 3a 47 ab b7 bd 46 52 aa 3d d5 fd b0 bd
       0.0014697482 -0.089682154 0.08316474 -0.086421646
0002b0 80 6a 37 3d 4e 9b 91 3d a8 f0 83 be 76 53 fc be
       0.0447793 0.071097 -0.25769544 -0.49282426
0002c0 d8 c4 6c be 4e 48 5a bd 6e 15 be 3c 8e 4b a8 be
       -0.23121965 -0.05329161 0.023203578 -0.32870144
0002d0 fb 4f 56 3e d6 21 6a 3d 2a 5e 1b be 94 83 e3 bc
       0.20928948 0.057161175 -0.1517264 -0.027772702
0002e0 87 20 43 bd 1b b1 7b bd 52 06 21 bd 99 9c 8e 3e
       -0.047638442 -0.061448198 -0.03931267 0.2785385
0002f0 8a b8 87 bd 56 96 90 bd cf 89 50 3e f4 12 8f 3e
       -0.06626995 -0.07059924 0.2036507 0.27944148
000300 d0 04 af 3b b6 33 8a 3d 70 51 28 bd 9d 36 37 be
       0.00534115 0.06748144 -0.04109329 -0.17891927
000310 9a 66 f2 3c 6e da 34 bb 22 c5 f9 3d 2a 76 e7 3d
       0.02958994 -0.0027596015 0.12195803 0.11301835
000320 22 15 f4 bb 5e 0d 75 3e 64 5c 25 bd 2f 98 4b be
       -0.0074488083 0.2393088 -0.040371314 -0.19882272
000330 2c 6e 12 be 87 dd d9 3b ef 1c af 3d df 97 02 be
       -0.1429984 0.0066487226 0.085504405 -0.12753247
000340 72 5f d5 be f3 dc d6 3d a7 06 36 bc af 65 80 3a
       -0.41674381 0.104913615 -0.0111099845 0.0009795929
000350 9f 41 6b 3c cc ba bb bc ff a2 5f be 60 43 3d bb
       0.014358907 -0.02291622 -0.21839522 -0.002887927
000360 2a 5f cf be 33 ed 95 bd 1a ce 64 be b4 07 0e bd
       -0.40502292 -0.07320633 -0.22344247 -0.034675315
000370 fe c3 1d 3d d9 07 a6 bd 16 6c e2 be ec d2 9b bd
       0.03851699 -0.081069656 -0.44223088 -0.076085895
000380 20 2b e4 bd 3e 5b 82 3c 9f 75 81 bc 9a de 80 bd
       -0.11141038 0.015912648 -0.015803156 -0.06292458
000390 e2 21 65 bd ff 9e 6b 3e 9e 5e 98 3d 16 36 d3 bd
       -0.055940516 0.23009871 0.07439922 -0.103130504
0003a0 e7 14 a3 bd f8 3b 7f bd f8 48 4c 3d 58 19 03 bc
       -0.07962971 -0.06231305 0.049874276 -0.008001648
0003b0 83 07 cc 3a 20 a0 85 3c 74 f9 ab bc 66 0f 9d bd
       0.0015566204 0.016311705 -0.020992972 -0.07668953
0003c0 23 3e 99 3d 64 50 77 bd 67 f2 7c 3d 67 f8 1e bd
       0.07482555 -0.0603794 0.06175461 -0.038811114
0003d0 48 63 a1 3d 50 46 31 3c 3e 0b 98 3d dc 93 6b 3d
       0.078802645 0.010819986 0.07424019 0.057514057
0003e0 ce 67 df 3c 20 ea 12 bb f8 18 47 3c 74 6b 91 3d
       0.027271178 -0.0022417381 0.012151949 0.07100573
0003f0 45 f0 aa 3d 70 d9 f8 bd d7 2f b3 bd b6 ce 58 bd
       0.08346609 -0.12150848 -0.08749359 -0.05293151

fc2.bias f4 [84]
000000 3e 38 10 3f f9 4e 07 3b 67 8b e9 bd f8 b9 38 be
       0.5633582 0.0020646437 -0.11403542 -0.18039691
000010 e6 50 96 3d ef 9d 83 be 96 c1 b5 bd 4d be c0 3e
       0.07339649 -0.2570643 -0.08874814 0.37645188
000020 09 ae 06 be 94 ec 5f 3e eb d3 36 be 5d 98 09 3e
       -0.13152327 0.21867591 -0.17854278 0.13437028
000030 9e 19 30 be 5d 7d 77 be 71 29 5f bd 7d ae 58 3e
       -0.17197272 -0.24168916 -0.05448288 0.21160312
000040 a3 17 c5 be a5 ec b7 be b6 b3 01 3d 15 45 8d 3e
       -0.38494596 -0.35922733 0.031665526 0.27591768
000050 a3 79 4b 3d 45 f5 b7 bd 39 8d 3e 3e ad f0 c9 be
       0.04967655 -0.08982328 0.1860856 -0.39441434
000060 dc 21 5f 3f cb de 0b 3f bb db 28 3f cf 16 fa bd
       0.8716104 0.5463683 0.6596028 -0.12211382
000070 08 3a 66 3e 16 f5 81 3e 68 57 6a bd b4 27 d8 3e
       0.22483075 0.25382298 -0.057212263 0.4221779
000080 7c 8c b1 3b 05 a2 18 be 94 5c 0f be 44 bf 3d be
       0.0054183584 -0.14905556 -0.1400016 -0.18529993
000090 d4 82 42 3f 16 19 c2 3b 39 a3 39 be 85 e3 d2 bc
       0.7598088 0.0059234006 -0.18128671 -0.025743255
0000a0 dd 23 51 3f 67 30 0a be 99 b4 b2 bd d5 b9 8b 3d
       0.8169535 -0.13495027 -0.087258525 0.06822554
0000b0 9b 55 b6 be d8 2d 07 3c ed 43 ff 3c 3b 39 b2 3d
       -0.35612187 0.008250676 0.03116032 0.08702322
0000c0 79 b9 82 be 16 9b 82 be 3c 49 5b 3e 7c 6b 24 3e
       -0.2553213 -0.25508946 0.21414655 0.16056627
0000d0 a0 a2 ca 3e e9 75 89 bd 22 6d 2b be c1 f5 67 3e
       0.39577198 -0.06711943 -0.1674085 0.22652341
0000e0 63 38 4a be 1c b0 bf bc 62 4a b0 3e ad 8e 6e 3e
       -0.19748072 -0.023399405 0.3443175 0.23296614
0000f0 18 a8 2a 3e 67 49 7a 3e 5b a7 40 3d 97 03 aa bc
       0.16665685 0.24442063 0.047034603 -0.020753665
000100 b3 63 b4 3d 05 fa 6d 3e 7a b6 45 be 81 ca 9d be
       0.088080786 0.23239906 -0.1930789 -0.3081856
000110 50 dc 40 3f b6 08 6f be 4f 47 c1 3e b6 2b b2 3e
       0.7533617 -0.23343167 0.37749717 0.34798974
000120 51 d3 fe bd 40 13 91 bd 3d 55 36 be 9b 54 88 be
       -0.12442649 -0.0708375 -0.17805953 -0.2662705
000130 c1 a1 88 3e b8 8a a5 be 1e 88 00 3f e6 45 eb 3e
       0.26685908 -0.32332397 0.502077 0.45951766
000140 9d e8 94 3e a2 cc 53 be 59 52 1d 3e 89 c8 98 3e
       0.2908372 -0.2068353 0.15363444 0.29840496

output.weight f4 [10, 84]
000000 7d f8 34 bf 3e 41 c7 be c6 4f 81 be 0c c6 6b 3d
       -0.70691663 -0.38916963 -0.25256175 0.05756192
000010 82 9b 21 3e 43 97 6f 3e f7 50 87 bd 3b d4 32 be
       0.15781978 0.23397546 -0.0660724 -0.17463772
000020 24 42 be 3c d8 e2 0f bd 34 97 af bd 3d 49 6c 3d
       0.023224898 -0.035128444 -0.085737616 0.057687033
000030 be 68 31 be b1 9e 2f 3e 28 ae f0 bd 88 25 61 bd
       -0.17325112 0.1715038 -0.11751968 -0.054967433
000040 7a fa 94 3d 4f 3a 18 3e ed 4c d1 bd 74 c8 b2 be
       0.07274337 0.14865993 -0.102197506 -0.3491856
000050 dc bb 2a 3c 51 cc a8 be a4 f7 e7 bd 42 af 42 be
       0.010420766 -0.3296838 -0.113265306 -0.19012168
000060 a6 ac 41 3d d4 69 06 bf 08 68 34 3c 61 57 c2 3d
       0.04728379 -0.5250523 0.011011131 0.094893225
000070 b2 b8 30 3d 25 ab 9d 3d 3d 90 2e be 9a 05 83 bd
       0.04314489 0.07698659 -0.1704721 -0.06397553
000080 0e e5 21 bd 20 f0 c4 bd 63 3f bb be 1f 23 e4 3b
       -0.039525084 -0.09616113 -0.36571798 0.0069621946
000090 15 95 7d bd 9c da ab 3c 20 67 54 3e 9f 39 40 be
       -0.061909754 0.020978265 0.20742464 -0.1877198
0000a0 b1 75 c1 be 9b 18 c8 bd 7f 01 c6 bd 57 24 6d be
       -0.37785104 -0.09770318 -0.09668254 -0.23158394
0000b0 b9 d2 a2 bc 7d 9e 5f 3e 57 7c 26 3c d4 11 2b bf
       -0.019875871 0.21837802 0.010161481 -0.6682408
0000c0 bb 36 0d 3f 0f e9 fc 3d 59 dd ba be d8 07 92 3d
       0.5516164 0.1234914 -0.36497 0.07130402
0000d0 67 5f 58 3e 3a cb 52 bd 56 6d 64 be c2 83 a4 be
       0.21130143 -0.051463343 -0.22307333 -0.32131773
0000e0 c8 21 ab be ae 19 e8 be b3 cb 1b bf 68 54 2c 3e
       -0.3342421 -0.45332092 -0.60857695 0.16829073
0000f0 a5 80 0f be de cc b3 bc 6b fa c9 be e7 2d 44 be
       -0.14013918 -0.021948274 -0.39448866 -0.19158135
000100 71 7c 80 3d 01 0d 15 bf 28 26 e3 3d 15 ce f2 bd
       0.06273735 -0.5822297 0.11091262 -0.11855713
000110 a8 68 e7 be d2 69 86 3e 41 a0 19 3e 7e 27 74 bd
       -0.45197034 0.2625261 0.15002538 -0.059607975
000120 95 d0 59 be 74 30 a2 be 66 cb b7 3d d7 35 ef be
       -0.21270974 -0.31677592 0.08974342 -0.46720764
000130 26 a7 89 3d be 3f 48 3e 49 46 8d bd 8c f4 20 bf
       0.06721334 0.19555566 -0.068981715 -0.6287315
000140 e7 5f 19 3d 57 41 50 3e 77 04 f9 bd fe ed d1 bd
       0.037444975 0.20337425 -0.12159055 -0.102504715
000150 53 8d 29 3e 68 fa 59 be 65 ba 6c be 2d 36 b1 bf
       0.16557817 -0.21286929 -0.23117979 -1.3844658
000160 fe 48 2b 3a 4d b0 62 bd 26 4d 0c be 23 52 0e bd
       0.0006534009 -0.055343915 -0.13701305 -0.0347463
000170 d1 2b d2 be bb 8b 28 be 02 c3 0f 3e b6 8d 91 3d
       -0.41049054 -0.16459553 0.14039233 0.07107107
000180 fb d7 44 3d bb fb 54 bf 35 8d 7a 3c 99 fb 52 3e
       0.048057538 -0.8319661 0.015292455 0.2060379
000190 c7 df 5e 3e 0e 7c 8a 3e 68 9c 07 bf a7 18 4b 3e
       0.21765052 0.2704777 -0.5297303 0.19833623
0001a0 02 fd 15 3d b2 22 0c bf d9 fe 83 3d 20 f9 2f 3c
       0.03661824 -0.5474044 0.06445093 0.010740548
0001b0 3e 5b 36 bf 6f c2 03 bf 4a 80 0c bd 7d 0c 43 be
       -0.71232975 -0.5146856 -0.034302033 -0.19047733
0001c0 6c 17 14 bf f6 47 5c 3e dc 83 c5 bd 48 e6 ba bd
       -0.5784824 0.21511826 -0.09644291 -0.09125954
0001d0 e2 67 48 bd 6f 07 38 be df 89 34 be 65 c8 b9 bd
       -0.048927195 -0.17971586 -0.17630719 -0.09071425
0001e0 87 cc 45 bf bf 24 02 3e 79 d5 3a 3e 23 40 b6 bd
       -0.7726521 0.1270933 0.18245496 -0.08898952
0001f0 64 0a 4e bd 31 60 cc bd 81 ea ca be 54 92 22 3e
       -0.050302878 -0.099792846 -0.39632037 0.15876132
000200 21 62 1c be 2d 89 05 3e 28 91 8e be e5 e9 cc bd
       -0.15271808 0.1304061 -0.2784512 -0.10005549
000210 64 19 59 be 59 f2 45 be 86 22 e3 3d 22 43 8f be
       -0.21201092 -0.1933073 0.11090569 -0.27980906
000220 60 ae 99 be cd 1e 9f be 29 92 90 3c 81 78 88 3e
       -0.3001585 -0.31078187 0.01764782 0.26654437
000230 61 61 41 be e5 05 87 3e a8 3f 9c 3d 93 4e 98 be
       -0.18884803 0.26371685 0.07629329 -0.29747447
000240 af c9 ef bd 8c 64 a9 be d3 66 04 3d 28 37 11 bc
       -0.1170839 -0.33084524 0.032324623 -0.008863248
000250 75 9f 08 bf 1c 3c ca bc 8d 8e d8 3e 0b e7 3c 3e
       -0.5336831 -0.024686866 0.42296258 0.18447511
000260 96 57 20 bf 37 50 5e 3d ec 8b 12 bd 9d f7 a4 be
       -0.62633646 0.054275718 -0.03577797 -0.32220164
000270 06 f0 79 bc e1 19 53 3e 90 82 6e be a5 b0 26 bf
       -0.01525498 0.20615341 -0.23291993 -0.6511329
000280 25 a0 95 3d 00 71 99 be a8 6b 5d bf 53 8f 1f bf
       0.07305936 -0.29969025 -0.86492395 -0.6232807
000290 8c da 50 3e d8 45 24 39 e4 16 d7 3d 8b bd d0 be
       0.20395869 0.00015666278 0.10502413 -0.4076961
0002a0 d2 11 26 3e 78 3b 99 be fd f0 8c bd e9 76 46 bf
       0.16217735 -0.29928184 -0.06881902 -0.7752519
0002b0 9e 09 0f 3e 45 c0 3b bb a0 f8 a5 be 85 b7 bf 3d
       0.13968512 -0.0028648537 -0.32416248 0.093611754
0002c0 e8 c7 56 be 2d b1 a0 be 20 77 e2 3d 5e 4d 67 be
       -0.20974696 -0.31385174 0.110578775 -0.22588107
0002d0 a8 e5 ad 39 96 3d 05 bf 8c 9d 13 bf 35 5d cc 3d
       0.0003316824 -0.520471 -0.5766227 0.09978715
0002e0 0b 62 f7 be b7 00 02 be 46 01 a9 be 01 89 b9 be
       -0.48316988 -0.12695585 -0.33008784 -0.36237338
0002f0 61 32 0e be a1 4a 09 bf 28 33 05 be 09 2c 8b 3e
       -0.13886406 -0.536295 -0.13007796 0.27182034
000300 74 72 25 be a1 1c 8d 3d 00 84 a6 be c4 cc 18 3e
       -0.16156942 0.06890226 -0.32522583 0.14921862
000310 93 e8 3e 3e 1b ab 2d bf 8c 3d 09 be 95 43 14 be
       0.18643408 -0.6783921 -0.13402385 -0.14478905
000320 bd 8b c5 be f8 c4 cf bd c0 36 52 be 2d 3f 42 3e
       -0.38583174 -0.10144991 -0.20528698 0.18969412
000330 7f 44 ab bd c0 4b 0c 3d ff ec 13 3e 7f 33 f9 bd
       -0.08362674 0.03425193 0.14445876 -0.12168025
000340 7e 79 c6 bd 25 24 83 bd 60 ff 13 bf af 34 64 3e
       -0.096911415 -0.064033784 -0.57811546 0.22285722
000350 f5 d8 ec be 77 17 91 be 06 d6 8f bc f5 c2 92 be
       -0.46259275 -0.28338215 -0.017558109 -0.28664365
000360 43 03 0c be 60 33 91 be 93 e8 d0 3d 8a b3 9a 3d
       -0.13673119 -0.2835951 0.1020061 0.075537756
000370 24 64 37 be bf f4 14 bd 49 93 27 bd 1f b9 59 be
       -0.17909294 -0.03636622 -0.040911946 -0.21262024
000380 87 19 6c 3d 7b 78 a5 be bb fd de 3d fa 36 82 3d
       0.057641532 -0.32318482 0.10888239 0.06358142
000390 57 c9 27 be 72 08 c5 bc 5d 75 35 3e d6 e3 44 3c
       -0.16385399 -0.024051879 0.17720552 0.012017211
0003a0 5d 54 6e 3e 76 19 aa bb 95 b9 26 3c 79 bd 8e bd
       0.2327437 -0.0051910235 0.010176082 -0.06969733
0003b0 62 29 72 3d bb 85 88 3c a1 a4 9f be 90 b8 8e bd
       0.059121497 0.01666533 -0.3118029 -0.06968796
0003c0 51 e4 1b be 18 84 20 3e ba 31 7f be 55 89 24 3e
       -0.15223815 0.1567539 -0.24921313 0.16068013
0003d0 70 a4 d1 be 56 8c 28 3e 11 94 45 3e d0 14 e2 3c
       -0.40945768 0.16459784 0.19294764 0.027597815
0003e0 95 10 f2 bc e4 b3 88 3c 36 93 16 be 20 5c 8d 3e
       -0.029548923 0.016687341 -0.14704594 0.27609348
0003f0 37 1c af bd 94 7b 60 bd 61 2d 23 bd 67 71 43 3e
       -0.085503034 -0.054805353 -0.0398382 0.19086228

output.bias f4 [10]
000000 f7 b3 80 be 43 c8 d4 be 2e e5 3e be 3f 1c b9 3e
       -0.25137302 -0.41559038 -0.18642113 0.36154363
000010 96 b8 c5 3e b7 cf ce bd cd e2 4a 3c d0 69 74 bd
       0.3861739 -0.10098212 0.012383175 -0.059671223
000020 b0 e3 bb 3d 07 a0 2d 3e
       0.09174287 0.16955577
