03 Artifical Nueral Network/model/mobile_price_classifier.pth (torch, 938373 bytes, 10 tensors)

linear1.weight f4 [128, 20]
000000 6a 8f 1f 3d d1 98 0d 3e 84 1d 3c be 30 ad 63 3e
       0.03895513 0.13827826 -0.18370634 0.22234035
000010 85 56 55 bd a3 46 cd 3d a3 4a ca 3b 30 43 a6 bd
       -0.052084465 0.100232385 0.006173448 -0.08118284
000020 f1 8a dd bd 52 7c 30 bd 0a 4f 04 be 47 62 88 bd
       -0.108175166 -0.04308731 -0.12920776 -0.0665937
000030 85 89 8d 3c ce 85 04 3e 7c 17 c6 3d cf 31 d3 3d
       0.017277488 0.12941667 0.09672448 0.103122346
000040 a3 c1 20 3e 84 c8 cd bd 62 8d 30 be 67 e5 ed bd
       0.15698867 -0.10048011 -0.17241433 -0.11616021
000050 a2 34 6d be d3 29 41 bd e7 a1 43 3e 83 03 d4 bd
       -0.23164609 -0.047159027 0.1910473 -0.10352232
000060 3a db 1b 3e 1b 75 31 be d9 0a 51 3e 0e a4 38 3d
       0.15220347 -0.17329828 0.20414294 0.04507833
000070 23 2a a3 bc 07 1b 01 3e 01 27 4d 3c 05 6c fa bd
       -0.019917553 0.12607966 0.012521506 -0.12227634
000080 81 c0 c8 bb 8e c3 88 bd 1b 05 1d 3e ab df 17 be
       -0.006126464 -0.06677924 0.15333979 -0.14831416
000090 8e ce 0b 3e c2 06 c4 bb 24 34 58 3e a5 dd 8e 3d
       0.13653013 -0.005982251 0.2111364 0.06975869
0000a0 aa e8 d5 3d 92 97 95 bd a9 3f 0d be 7a 8d 5f 3c
       0.10444768 -0.073043 -0.13793816 0.0136445705
0000b0 7e d8 d6 3d f6 90 d8 3d 7a 30 5e bc d7 93 f5 3c
       0.10490511 0.10574524 -0.013561362 0.029977722
0000c0 7d 78 cd 3c 1a af 49 bd c3 79 e1 3d 86 32 2b be
       0.025081867 -0.049239255 0.11009552 -0.16718492
0000d0 2e 23 1e bd cc 4d 6c be 8e c3 2e 3e f8 0c 3d bd
       -0.03860777 -0.23076552 0.17066786 -0.046154946
0000e0 d9 b3 ca 3d bb 27 c3 bd df ff 82 bd 1a d1 a2 3d
       0.098975845 -0.09529062 -0.0639646 0.07950039
0000f0 9f 25 1a 3e 68 e8 c8 3d 41 9c 80 bd d5 64 0c be
       0.15053414 0.09809953 -0.06279803 -0.1371034
000100 fa 55 cb bd 82 24 ef 3d d3 32 56 be 6a b9 94 bc
       -0.09928508 0.11676885 -0.20917825 -0.018154819
000110 e3 15 6f 3e 94 c6 3a bd 83 cd a4 3d 4d bf 02 be
       0.23348193 -0.045599535 0.08047011 -0.12768288
000120 a9 d4 32 3e bc 43 64 be 7d 3e 4a be cc eb 81 be
       0.17463936 -0.22291464 -0.197504 -0.2537521
000130 a1 eb 0d be 6c 8b e2 3c b6 67 d6 bc fb 27 c9 3d
       -0.13859417 0.027654372 -0.0261725 0.09822079
000140 b2 05 16 be 0d b6 a3 bd d1 07 45 3e 83 f6 37 3e
       -0.1465061 -0.07993708 0.19241263 0.1796513
000150 52 a9 35 3e c5 73 4a be d1 a1 28 3e ae 6d 06 3e
       0.17740372 -0.19770725 0.16467978 0.13127777
000160 2e 2f 3e be d3 f3 c2 3d f1 03 24 3e 76 d2 0b be
       -0.18572685 0.09519162 0.16017129 -0.13654503
000170 a3 d2 30 bd 49 00 2d 3e 16 c4 29 3e 9e 65 11 3e
       -0.04316963 0.1689464 0.16578707 0.1419892
000180 f9 02 d0 3d 5c c4 41 3d 9a 30 b8 3c ad d4 2f be
       0.10156817 0.047306404 0.022484113 -0.17170973
000190 c8 de 39 3e 85 cd 31 3e 26 ac 3c be c8 5a 5c 3d
       0.1815139 0.17363556 -0.18425044 0.053797513
0001a0 94 51 9d 3d d0 5d 54 be b4 ec b3 3d 4f 09 15 be
       0.076815754 -0.20738912 0.08785382 -0.14554332
0001b0 45 5a 1a be 23 6c 27 3d 37 29 b0 bd c4 3f 2d bd
       -0.15073498 0.04087461 -0.08601611 -0.04229714
0001c0 e2 6c 5a 3d 64 38 22 3b 16 75 c0 3a 61 6d 16 be
       0.053326495 0.002475285 0.0014683332 -0.14690162
0001d0 7f c3 32 3e 18 9a 18 3e 61 c4 a3 bc f5 85 fa bd
       0.17457388 0.14902532 -0.019991102 -0.122325815
0001e0 05 39 01 3e e4 ce b4 3d b4 26 de bb a2 ef 63 3d
       0.12619407 0.08828524 -0.006779516 0.055648454
0001f0 cf ea b2 bd 14 fe 3f 3e 4a 91 88 3c 70 b0 ec 3d
       -0.087361924 0.18749267 0.016670842 0.1155709
000200 f0 e1 48 be 0f fe 13 3d 0e 7f bf 3d 2c 7c 99 3d
       -0.19617438 0.03613096 0.09350406 0.07494387
000210 87 fd 1b bd ff 7f 86 3e 3d c6 6c 3e cf cd ab 3d
       -0.03808358 0.26269528 0.23122497 0.08388864
000220 78 3c 8b 3d a1 2e c6 bd c6 67 87 bd 8d ad 8b 3d
       0.06798643 -0.096768625 -0.0661159 0.068202116
000230 3a 12 53 3e 41 58 b2 3d 4f a6 19 be 4a c8 11 3e
       0.20612422 0.08708239 -0.15004848 0.1423656
000240 74 ff 09 be 29 85 01 3e f0 19 b6 3d e0 6f a1 bd
       -0.13476354 0.12648453 0.08891666 -0.078826666
000250 f2 b2 8d bd 3b 84 3e 3e 2f d3 df 3d ac fa 3b bc
       -0.06918897 0.1860513 0.10928952 -0.011473339
000260 dd 69 b4 bd 50 16 7a be a8 30 42 3e e7 6c 26 bd
       -0.08809254 -0.24422574 0.18963873 -0.0406312
000270 44 35 37 3e 3d 50 e7 bd d6 4b 6a be 2d 8e c9 3d
       0.17891413 -0.11294601 -0.22880492 0.09841571
000280 a2 ed d1 3c 57 83 42 be 66 aa 38 3d eb 52 8b bd
       0.025626007 -0.18995415 0.04508438 -0.06802925
000290 82 5f 63 3c ba 64 4e be 58 79 1b be c0 e3 29 3e
       0.013877751 -0.20155612 -0.15183008 0.16590786
0002a0 2b 01 a5 3d 73 b0 4f 3e d3 b2 1b 3e cd 5f c0 3d
       0.080568634 0.20282154 0.15204935 0.093932725
0002b0 8b 67 0d be 06 da 31 3e 5b 86 40 be 0e ce 1a 3e
       -0.1380903 0.17368326 -0.18801253 0.15117666
0002c0 9e 63 e0 3d 9e af 88 bc 2f ed 04 bd b7 20 ba bd
       0.109565005 -0.016685303 -0.03245276 -0.09088271
0002d0 de 35 09 bd 27 b0 07 3e 53 df 08 3e f0 97 65 be
       -0.033498637 0.1325079 0.13366441 -0.22421241
0002e0 a2 f5 54 bc 50 f8 07 3d 8f 61 d9 ba 16 cd b7 bd
       -0.012998017 0.033195794 -0.0016584861 -0.08974664
0002f0 66 bf 09 bd 44 58 4f be ea 38 2f 3e 94 87 f0 3d
       -0.033629797 -0.20248514 0.17111555 0.117446095
000300 c3 4f 6e 3d 3c 0c 91 be 25 f4 62 3e e4 d6 5f 3d
       0.058181535 -0.28329647 0.22163446 0.054648295
000310 7f 02 04 be c1 ae 79 be 8b 55 8d 3d 97 cb a8 3d
       -0.12891577 -0.2438307 0.06901082 0.08241957
000320 27 4f 22 3d 05 c9 c7 3d d1 44 44 be 7a 47 d6 3d
       0.039626267 0.09755138 -0.19166876 0.10462852
000330 b9 08 3b 3e f5 37 06 3e a9 f5 d6 bd de 9b f6 bd
       0.18265046 0.13107283 -0.10496075 -0.12041448
000340 84 d9 45 3e eb b6 98 3d 39 e7 b9 3d 44 c2 42 bd
       0.19321257 0.07456764 0.09077305 -0.047548547
000350 ab 0c b7 3d 42 d5 96 be 93 1b 5a 3d 96 3c c5 bc
       0.08937963 -0.29459578 0.053248953 -0.024076741
000360 f2 f7 93 bc be db 59 3e e5 6b 3c be 1f 89 36 be
       -0.018062565 0.21275231 -0.18400533 -0.17825745
000370 51 bc be 3d 6d 4c 3f 3e cf 12 27 3d c2 bf a0 bd
       0.09313262 0.18681498 0.04078942 -0.07849075
000380 12 1a b0 bd ee 51 92 bd d8 9f 19 3e b5 c8 86 3d
       -0.085987225 -0.07144533 0.15002382 0.065812506
000390 40 5d 71 3d 7a e1 df 3d 06 96 15 be 3a 6d 9f 3d
       0.05892682 0.10931678 -0.1460801 0.07784505
0003a0 3b a7 2f 3e 24 a5 5c be 16 d7 62 be 39 22 d7 bd
       0.17153637 -0.21547371 -0.22152361 -0.10504574
0003b0 3c da c5 bd 85 a3 29 3e 35 20 c5 3d 6a 21 f2 bd
       -0.096607655 0.16566284 0.09625284 -0.118227795
0003c0 ec b1 10 be 04 b5 26 be 84 c9 80 3d 63 50 51 3e
       -0.14130372 -0.1627999 0.06288436 0.20440821
0003d0 c8 98 cd 3c c8 7d 4c bd e8 bc c1 bd b9 1c ca 3d
       0.025097266 -0.04992464 -0.09459859 0.0986876
0003e0 0f 78 39 3e d6 eb 36 bb 0a 3e f1 bc d8 df 6a bd
       0.18112205 -0.0027911565 -0.029448528 -0.05734238
0003f0 a9 53 44 3e 07 b5 92 3e 7e 5f df bc fd 14 3a 3d
       0.19172539 0.28653738 -0.027267214 0.045430172

linear1.bias f4 [128]
000000 d1 96 c8 bd 8f 02 52 3e f4 4d 85 3d ac 3c 44 bc
       -0.09794391 0.20508789 0.06509009 -0.011977356
000010 77 d0 9c bd 56 66 c3 bd 87 2b b1 39 08 d0 ea 3d
       -0.07656949 -0.095410034 0.000337925 0.1146546
000020 de f7 05 3e 38 c7 54 be 47 80 66 bc eb 07 49 be
       0.13082835 -0.20779121 -0.01406867 -0.19631927
000030 f7 f4 72 3e 67 5e 49 3d bd 26 12 3e 16 0f ca 3d
       0.23726259 0.049162295 0.1427259 0.09866159
000040 25 ee 08 be 69 b0 82 bc ec 28 09 bd 80 69 24 3e
       -0.13372095 -0.01595326 -0.03348629 0.1605587
000050 15 37 3e bd 8a c0 4d be 8c b3 63 bb 9d 4a c9 3c
       -0.04643925 -0.20092979 -0.003474447 0.024571711
000060 81 3d bc bd 86 4a 62 3e 63 84 35 3d ca 46 04 3e
       -0.091914184 0.22098741 0.044315707 0.12917629
000070 52 0e 30 3d f7 7d 87 3c 6c c5 1f be c6 29 12 be
       0.042982407 0.016539557 -0.15602654 -0.14273748
000080 a8 f1 76 bd ec b7 25 3e 6a e7 56 3e 8a e8 27 be
       -0.060289055 0.16183442 0.20986715 -0.163973
000090 9c f3 e6 3d 57 8d f5 bd b9 62 8a bd 9f e3 cd bd
       0.112769336 -0.11989849 -0.06757111 -0.10053181
0000a0 71 b0 d5 bd b2 d2 b5 bd 95 9f cd bd 6a e5 93 3d
       -0.10434044 -0.088780776 -0.100402035 0.07221492
0000b0 a0 62 87 bd 62 32 03 3e c7 db 24 3e 0b fe 7c bd
       -0.06610608 0.12812188 0.16099463 -0.06176571
0000c0 09 92 34 3e 10 79 1c be 01 c6 84 bd c3 f9 26 bb
       0.17633833 -0.15280557 -0.06483079 -0.002547846
0000d0 67 5a 49 3b c2 9f 61 bd e1 97 1b 3e a1 b8 2e 3d
       0.003072405 -0.055083998 0.15194656 0.042656545
0000e0 8f ad 19 be b9 f1 b0 3d 5f af 05 3e 4c af 68 3e
       -0.15007614 0.08639855 0.1305518 0.2272312
0000f0 0b 05 f6 bd 88 01 12 3d 4f 27 3d bd 85 e0 c3 3d
       -0.120126806 0.03564599 -0.046180066 0.09564308
000100 1b 92 3d be e2 98 6a 3e e1 51 94 3c cd 9d c3 3c
       -0.18512766 0.22909883 0.01810545 0.023878956
000110 f8 55 42 3e b2 f5 78 be ef 2d ac 3d c0 95 10 3e
       0.18978107 -0.24312475 0.08407199 0.14119625
000120 e8 e5 1d 3e 8a e9 96 3d 64 e7 3c 3e eb 29 cc bd
       0.15419734 0.07368763 0.18447644 -0.09968933
000130 c8 da 9f bd 75 9b 7d bd 68 56 11 bd 29 27 fb bc
       -0.07805401 -0.061915834 -0.035482794 -0.030658321
000140 ed dd 62 3e c8 48 51 3e c2 22 3c bd 46 31 d2 3c
       0.2215497 0.2043792 -0.045931585 0.025658261
000150 31 f1 49 be 76 1b 21 3e 0d 39 49 3e de 04 46 3c
       -0.19720913 0.15733132 0.1965067 0.012086121
000160 15 a7 3e 3e c5 69 92 bd 9a b2 2d bd 10 6b 65 3d
       0.18618424 -0.0714908 -0.042406656 0.056010306
000170 8d cb 07 bc 32 41 09 be eb c1 7a bd bb a7 c9 3c
       -0.008288276 -0.13403776 -0.06122009 0.024616113
000180 b1 aa da 3d c0 28 8f bc dc c9 e9 bd 2a 3d 5a 3e
       0.10677088 -0.017475486 -0.11415455 0.21312395
000190 46 a9 41 bd cc db d9 3c 2d 10 8f 3b fe 68 a3 bd
       -0.047280572 0.026594065 0.004365942 -0.0797901
0001a0 fc 79 07 be 54 a5 19 39 69 2e 27 be 2f a2 34 3e
       -0.13230127 0.00014652807 -0.16326298 0.17639993
0001b0 8b 4c 4d 3e f0 64 da 3d 08 0c 62 3e df fe 58 3e
       0.2004873 0.106637836 0.22074902 0.21190976
0001c0 a8 06 31 be 71 5d 27 bd 1c b8 b2 bd 85 66 a9 3d
       -0.17287695 -0.040860597 -0.08726522 0.08271507
0001d0 93 53 43 3e 5a 4b d5 3d 7c b4 5f 3e 13 57 3c 3e
       0.1907485 0.10414763 0.21846193 0.18392591
0001e0 4f 83 7f 3e fd 6c e6 3d 9e c6 05 bd 81 38 21 3d
       0.24952434 0.112512566 -0.03266012 0.039360527
0001f0 8c 72 af 3d 03 f1 7b 3e 47 51 05 be 46 34 37 be
       0.0856677 0.24603657 -0.13019286 -0.17891034

linear2.weight f4 [256, 128]
000000 d9 ed a8 3d b0 45 a7 3d d8 76 23 bd fb 0a 5e bd
       0.08248491 0.08167589 -0.03990826 -0.05420969
000010 3f 29 11 3d ed 2c 1f 3d b0 08 db b9 52 78 1b 3d
       0.035439726 0.038861204 -0.00041777408 0.037956543
000020 c2 69 b3 bb 9e bc 8e 3d 16 16 9e 3c d4 f8 27 bb
       -0.005475254 0.069695696 0.01929764 -0.002563049
000030 4d 24 73 3d 05 50 af bd 69 79 40 3a 4b 91 91 3c
       0.05936079 -0.085601844 0.000734231 0.017769476
000040 1b dd d5 3c 19 5f 02 3d 87 57 7f bd 86 1e a7 bc
       0.026106408 0.031828973 -0.062339332 -0.020400297
000050 67 35 b5 3d 0f 67 28 3c 9e 72 dc 3d b8 ff 8b bb
       0.08848076 0.010278477 0.10764049 -0.0042724274
000060 ca c4 79 bd 50 b3 2d bd 5c bf 63 bd e8 83 b7 3d
       -0.06097869 -0.042407334 -0.055602416 0.08960706
000070 07 47 e5 3c cd 19 6a 3d ad 7d da ba ae 86 0f 3c
       0.02798797 0.05715351 -0.0016669534 0.0087601375
000080 fd e4 91 3c 8f 31 87 3d 4a 34 90 ba 80 84 fb bb
       0.017809385 0.066012494 -0.0011001911 -0.0076757073
000090 f0 c6 8a bd c9 1f 9d bc 01 12 b1 3d 7c d7 5e 3d
       -0.067762256 -0.019180195 0.08646012 0.05440472
0000a0 f1 e2 54 3c cc e1 87 3c 22 94 a7 3d 7b d2 4a 3d
       0.01299356 0.01658716 0.08182551 0.049517136
0000b0 3d 4c ab 3d ff b0 6a bd fd 6b 57 bd ec 0e f3 bb
       0.08364151 -0.057297703 -0.05259322 -0.0074175503
0000c0 99 c3 33 bd 4a 10 95 bd 16 41 81 bd df fb 56 bd
       -0.04388771 -0.072784975 -0.06311242 -0.052486297
0000d0 01 df 4c bc a3 37 f2 3c f5 01 a4 bb 69 35 02 bd
       -0.01250434 0.029567545 -0.005005116 -0.031789217
0000e0 90 61 37 3d 0c 20 9c bd 05 1a 8d bd 7d 02 6a 3d
       0.044770777 -0.076233 -0.068897285 0.05713128
0000f0 3a 2b f6 3c 2a 23 a9 3d bb 5e bb bd f7 e8 68 bd
       0.030049909 0.0825866 -0.09148928 -0.056862798
000100 42 ca 8f bc 3a 18 bc 3d 7d f2 bd 3d 41 c2 2f 3d
       -0.017552499 0.09184308 0.092747666 0.042909864
000110 7d 0e ad 3d a8 98 89 3d 14 34 44 bc 2c 22 81 3d
       0.08450029 0.0671857 -0.011975307 0.06305346
000120 1f 89 ce 3d f3 bb 98 bd d4 56 0f bd 47 e4 c8 bb
       0.100847475 -0.074577235 -0.034994915 -0.0061307284
000130 61 4d bf 3d 91 c6 03 bd 58 bf 55 bd d0 96 3f bd
       0.09340931 -0.03217179 -0.052184433 -0.046774685
000140 d9 03 c7 3d 02 46 9b bc d0 b6 53 bb a5 06 b5 3d
       0.09717531 -0.01895428 -0.003230501 0.08839158
000150 71 ec 50 3d 00 99 eb ba 6a e2 91 3b 99 44 07 3d
       0.051006738 -0.0017974675 0.0044520395 0.033024404
000160 ba 0a 14 bd c2 2f 4b bc 38 4a cb 3c 99 9e c0 bd
       -0.036143042 -0.012401523 0.024815664 -0.0940525
000170 d6 1a a6 bd 1a 25 e9 bc b6 94 86 3d 1d f6 24 3d
       -0.08110587 -0.028460074 0.06571333 0.040273774
000180 c6 f8 2d bd 9a 8c b5 bc df 3b 0e 3d 37 4e 18 bb
       -0.042473577 -0.02216177 0.034725066 -0.002323998
000190 0e 51 a3 bd 41 94 65 3d e7 a1 31 bd 1a 83 6d bd
       -0.07974444 0.05604959 -0.043367293 -0.057986356
0001a0 d6 0c c0 3d 9d 42 ef 3d 1a ca 7a 3d c5 6e 19 3d
       0.09377448 0.11682627 0.061227895 0.037459154
0001b0 1b 55 67 3c 43 ba 2f 3d 31 87 11 3d d9 ef 42 bc
       0.014119412 0.042902242 0.03552932 -0.011898004
0001c0 c3 7b 87 3d 97 21 cd bc 6a 3f a3 3d 12 2a 3c bd
       0.066154025 -0.025040431 0.0797108 -0.04593856
0001d0 89 1b 43 3d 0f 00 18 3d 84 ea e5 bc fc f3 d7 3d
       0.04763368 0.03710943 -0.028065927 0.10544583
0001e0 a8 04 d1 bc 42 3b 85 bd 81 6b 65 bc 59 48 eb 3c
       -0.025514916 -0.06505443 -0.014002682 0.028721021
0001f0 ab ea 59 bd 84 a8 34 bd a0 7a 27 3c fc b2 4f 3d
       -0.053202312 -0.04410602 0.010222107 0.050707802
000200 d4 69 38 3d cd 13 b3 bd 5a 52 72 bc 35 bb 85 3d
       0.0450228 -0.08744011 -0.014790142 0.065298475
000210 0d e9 51 bd f0 8e 34 bd bd 10 ab bd 7b bb 6f bd
       -0.051247645 -0.04408163 -0.08352802 -0.058528405
000220 ea 5c fd bc 21 a4 85 3d 2b 5f 8c bd f7 fa aa bb
       -0.030928094 0.06525446 -0.06854089 -0.0052179056
000230 1b ec b4 bc ca 03 83 bd db e1 4c 3d 94 a1 89 bd
       -0.02208524 -0.06397207 0.05002008 -0.06720272
000240 75 fb 24 3d a4 04 4e 3d 68 55 85 3d 78 aa 86 3d
       0.04027887 0.050297394 0.065104306 0.06575483
000250 d9 0f ec bc 1d 8b a9 bd d1 a6 96 bc 4d f3 d4 3b
       -0.02881615 -0.08278487 -0.018390091 0.0064987303
000260 55 8a 3b bd 27 6c b3 bc 29 56 01 bd 37 ff 16 bd
       -0.04578622 -0.021902157 -0.03157631 -0.036864486
000270 bf 83 f6 bb 74 0f 96 3d 36 4a 4a ba 5b 5f d8 3b
       -0.0075230296 0.07327166 -0.0007716747 0.006603164
000280 18 6b 5c 3d cc 9c 85 3d 4b 74 d5 3a f9 1f 1e bc
       0.05381307 0.06524047 0.0016285268 -0.009651178
000290 8c 61 aa 3d d3 4d a0 3c b5 a5 a2 bd 73 52 2a bd
       0.08319387 0.01956836 -0.07941762 -0.041582536
0002a0 12 56 50 3d 65 e1 8f bd cc c0 36 bb f7 f9 d2 3c
       0.050863333 -0.070254125 -0.0027885912 0.025753958
0002b0 3f cb 90 3d 41 b8 97 bd bb 0a e9 3a d0 66 9c bd
       0.07070016 -0.074081905 0.0017779687 -0.076367974
0002c0 cc b5 62 bd a8 70 93 bc b4 34 8d bd 29 7d 99 3b
       -0.055349156 -0.017998055 -0.06894818 0.0046841097
0002d0 2d ad 9c bd d3 d9 1b 3d 02 ac e8 3c 75 5f 01 3d
       -0.07650218 0.03804953 0.028402332 0.031585176
0002e0 63 04 36 3b 5d 1f 53 bd 7f 82 64 bd 29 c4 f8 bc
       0.002777361 -0.051543582 -0.055788513 -0.030366974
0002f0 9a 35 9f 3d 11 47 8c 3d 79 5c 72 3d bc d5 d1 bd
       0.077738956 0.06849492 0.05917022 -0.10245845
000300 14 61 85 bc d7 b0 5a 3d 55 a2 d7 3c 81 f6 66 3d
       -0.016281642 0.053391304 0.026322523 0.05638743
000310 3b d8 b2 3d 4e 13 c3 3a de 7a 3e ba 74 fb 57 3d
       0.08732649 0.0014883073 -0.00072662334 0.05273004
000320 84 b9 2e 3b 26 ff 38 bc d0 f2 16 bd 6c 7d a7 bb
       0.002666087 -0.011291301 -0.036852658 -0.005111387
000330 29 c3 05 3d 57 59 f8 bc 11 20 80 bd 9b 11 ad 3c
       0.032656822 -0.030316038 -0.06256116 0.021126559
000340 88 4c 01 3d 30 a3 d3 3d e0 a9 ce 3d 3e 7f fd 3c
       0.031567127 0.1033386 0.10090995 0.030944463
000350 60 bf 08 bd d7 de 97 3d 8b 84 9b bc 75 75 69 3d
       -0.033385634 0.0741555 -0.0189841 0.05699678
000360 86 05 08 bd 87 12 2e 3d 29 63 c0 3b 4a b1 a8 3d
       -0.033208393 0.042498138 0.005871196 0.0823694
000370 d4 86 f0 3c 70 b0 92 bd a4 d8 ec bb 8f bd 53 3c
       0.029361166 -0.07162559 -0.007227974 0.012923612
000380 6a bc b1 3d 24 79 b8 3d 9b fc 9d bc b8 ca 0b 3d
       0.08678515 0.09007481 -0.01928549 0.034128875
000390 91 77 bc 3d a5 f7 32 bd 0f ac 3d bd 09 d7 f4 bc
       0.09202493 -0.043693203 -0.046306666 -0.029887693
0003a0 9c 9f 02 bd 88 1d 8e bd b6 c2 63 3d 58 a7 29 3d
       -0.031890497 -0.069392264 0.055605613 0.041419357
0003b0 ba 9d 66 bd e5 ed 86 3c 5b 8e 15 3d e6 ee bd bd
       -0.056302764 0.016470859 0.036512714 -0.09274082
0003c0 66 32 70 3c 92 c6 16 3c 59 e3 bd bd 77 a1 23 3d
       0.014660453 0.009202616 -0.09271879 0.039948907
0003d0 98 8a 8a 3d f9 5c 97 bd a7 c4 03 3d b7 ca 83 3d
       0.06764716 -0.0739078 0.032169964 0.06435149
0003e0 46 f9 2a bd e3 6f 85 3d fb b5 24 bd ff 50 a0 bd
       -0.041741632 0.06515481 -0.040212613 -0.07827949
0003f0 4e ac 8e bd e1 bb 80 bd 41 36 68 3d 9f 77 82 3b
       -0.06966458 -0.06285835 0.056692366 0.003981545

linear2.bias f4 [256]
000000 20 8b 9e bc bb db da bb ad 8b 65 3d 81 a7 0a bc
       -0.01935345 -0.006679026 0.05604141 -0.008462788
000010 a1 2e f4 3d 15 d2 ca bc a2 d0 b4 3b e1 0b 63 bd
       0.11922956 -0.024758378 0.005518035 -0.05543125
000020 66 2f 13 bd f0 8d 0d 3c c6 6f 84 bb b6 30 2b 3d
       -0.035933875 0.008639798 -0.0040416447 0.0417945
000030 3b 60 c3 3d 94 1e a0 3b 7b 9d 2d 3d c4 cf 87 bd
       0.09539839 0.0048864577 0.042386513 -0.06631425
000040 33 fc c7 3c ad 7a 07 bd 90 d6 93 3d c6 e9 b4 3d
       0.02441225 -0.033075977 0.07218659 0.08833651
000050 fa 32 80 bd e8 40 e8 3c dd 78 a8 3d e2 25 09 bd
       -0.06259723 0.028351262 0.08226178 -0.033483393
000060 4e 36 66 bd d3 39 a6 3d f8 28 22 bd 95 e6 09 bd
       -0.056204133 0.08116498 -0.039589852 -0.033667166
000070 aa 27 9d 3d 57 15 98 3d 3b 0b 9b 3d 5d 29 6d bd
       0.07673581 0.07425945 0.075705014 -0.057900775
000080 7b 5a 1c bd ec 3f 99 ba 44 01 9a 3d 65 71 6b 3d
       -0.038172226 -0.0011692024 0.07519773 0.05748119
000090 20 79 63 bb 49 43 cd 3d 65 2c 1b 3d aa de 03 bc
       -0.0034709647 0.10022599 0.037884135 -0.008048693
0000a0 67 53 96 bd f7 2e bb 3d b7 8d c5 3d 0b b5 c9 bc
       -0.073401265 0.09139817 0.096461706 -0.02462246
0000b0 4e 60 b2 3d 63 1a 77 bd a1 6a 1e bd bb 2b 72 3d
       0.08709775 -0.0603279 -0.038675908 0.059123736
0000c0 b6 f8 40 bb cc 67 99 3d b0 6c 10 3d cd 06 a7 3d
       -0.0029445118 0.07490501 0.035259902 0.08155594
0000d0 c0 71 0c bc d9 4f b3 3d cb 21 0c bd f9 84 dc 3c
       -0.008572042 0.08755464 -0.034211915 0.026918875
0000e0 0a b3 49 3d 37 f3 33 bd 5f 93 37 bc 1e 1f 85 3c
       0.04924301 -0.04393312 -0.01120457 0.01625019
0000f0 00 8b 5e 3d 76 df b6 3b be ae 9f bd 1a 79 ca 3d
       0.05433178 0.005580838 -0.07797001 0.098863795
000100 9f c0 1b bd 62 93 0c bd a9 fe 67 3d b4 b4 d2 bb
       -0.038025495 -0.034320243 0.056639347 -0.006430233
000110 a8 50 13 3c 4c 74 d4 3c 5a 56 ca 3d 1a 4f 50 3d
       0.008991398 0.02593436 0.098797515 0.050856687
000120 47 2c 96 3d 62 e1 d9 3d f5 64 0e bd 26 b2 2f 3d
       0.07332664 0.106386915 -0.03476425 0.042894505
000130 48 6e 0b 3d 98 96 77 bd 6b a7 41 bd 82 3c b7 3d
       0.03404072 -0.06044635 -0.047278803 0.08947088
000140 56 71 fd bc 4d f6 72 3d 7e d6 53 3c c1 b1 53 3d
       -0.030937832 0.059316922 0.012929557 0.05168319
000150 74 e5 af bd da 7f 92 3b ca ba 4b bd 0c ef 97 bc
       -0.085886866 0.0044708075 -0.049738683 -0.018546604
000160 cb ca f6 3d 3c 52 92 3d 3a 1e dc bc e3 26 b4 bb
       0.120503984 0.07144591 -0.026869882 -0.0054977997
000170 6b ce 08 3d af 20 2a bd 4d b6 ee bc 20 f5 a5 3d
       0.03339998 -0.041535076 -0.029139662 0.081033945
000180 ab d5 8b 3d 9c 7a 93 bc c9 fe f8 bb 02 6c 85 3d
       0.06827863 -0.0180028 -0.007598732 0.065147415
000190 1e 22 fc 3c 74 b2 61 bd 5f 08 b8 3c 5d 4d b9 3d
       0.030777987 -0.055101827 0.02246493 0.09047959
0001a0 f5 25 99 3a a7 90 4f bd 34 86 73 3d 2c a8 ce 3d
       0.0011684286 -0.05067506 0.059454158 0.1009067
0001b0 fc 4e a9 bb c1 ed f9 bc e7 65 81 3d d8 ea b9 3a
       -0.0051668864 -0.030508878 0.063182645 0.0014184369
0001c0 f1 4a 8a bd 3c 9e c1 3c f2 cf e0 3d ac 2b 86 bd
       -0.06752575 0.023635022 0.109771624 -0.065512985
0001d0 48 5f f9 bc a9 7c cf 3c 40 b2 61 3d 37 5b c1 3d
       -0.030440941 0.025327997 0.055101633 0.09441226
0001e0 e8 ee 38 bc e5 bc 98 3d 81 b1 d2 3c 56 bc 70 bd
       -0.011287428 0.07457904 0.025719406 -0.05877336
0001f0 ad 5b 05 bb 93 60 1c 3b 79 15 30 3d 3a 96 3c bd
       -0.0020348832 0.0023861274 0.042989228 -0.046041705
000200 fb 51 8f 3c d2 21 27 bd eb d6 ab 3c ef f0 e5 3d
       0.017495146 -0.040803738 0.020976504 0.11227595
000210 11 ca f4 ba 76 75 13 bd a0 b4 71 3c d8 83 d2 3c
       -0.0018675943 -0.03600069 0.014752537 0.025697634
000220 4a ce 01 3d 5f 4d 8c 3d 1b 74 6d bd cb b7 c6 3d
       0.031690873 0.06850695 -0.057972055 0.097030245
000230 f4 f6 26 3d 95 48 26 bd 7b 14 35 3d 86 b5 71 3d
       0.040762857 -0.040596563 0.044208985 0.059011005
000240 bc 36 26 bd de 13 be 3d 91 60 60 bd 20 12 39 3d
       -0.040579543 0.09281133 -0.054779593 0.0451833
000250 f7 f5 b7 3d 32 e6 32 bd 83 9a 91 bd 7b b4 81 3d
       0.08982461 -0.043676563 -0.07109549 0.06333252
000260 53 78 49 bc ab b0 91 bd 9c b7 87 3c 1c ee 23 bd
       -0.012296754 -0.07113775 0.016567044 -0.040022
000270 00 1d ee 3d 43 ea eb bb 43 5d 9f 3d 67 53 c7 3c
       0.11626625 -0.007199557 0.0778146 0.024331762
000280 59 60 8a 3d c0 53 3c 3d f5 85 c8 3d a6 19 8b bd
       0.06756658 0.045978308 0.09791175 -0.067920014
000290 fc 89 32 bd 04 e8 1a 3d 53 7c 03 3d 67 2e 91 bd
       -0.043588623 0.037818924 0.032100987 -0.07088929
0002a0 0f 43 92 3d a7 68 aa 3d e5 4a e3 3d ac 50 0f bc
       0.07141697 0.08320742 0.110982694 -0.008747261
0002b0 58 b8 23 bd b8 07 98 3d 68 f6 71 bd 1e d6 7c 3b
       -0.039970726 0.07423347 -0.059072882 0.0038579772
0002c0 6f 4b bf 3d 17 24 81 3d b8 37 51 bd 8b 6e b5 3d
       0.0934056 0.06305712 -0.05107853 0.08858975
0002d0 9d 1e cf 3d 4e e1 8f bd 0a ce 29 3c 04 e1 65 bd
       0.10113261 -0.07025395 0.010364065 -0.056122795
0002e0 5e ec 46 bd 57 96 05 bd 3d 17 4e 3d 1f 3a 27 bd
       -0.04856526 -0.03261408 0.05031513 -0.040826913
0002f0 76 74 a0 3a 76 81 03 3b 56 e4 1d bd 1b 28 90 3d
       0.0012241739 0.0020066178 -0.038547836 0.070388995
000300 65 ec 4c bc ea dd ee 3d ae a3 0d 3c ee 99 0c bd
       -0.012507533 0.116634205 0.008644981 -0.034326486
000310 1e 04 8b bb 1b c7 75 bc d1 85 b7 3c cc 31 dc 3d
       -0.004242434 -0.015001084 0.022402676 0.107516855
000320 b5 11 73 3d 62 fd ee bc bd 36 59 3d 73 0a 9b 3c
       0.05934306 -0.029173557 0.053030718 0.018925881
000330 bd 20 6f 3d 90 79 b9 3d 6c b7 f9 3d 77 6b 7f 3d
       0.05838083 0.09056389 0.12193188 0.062358346
000340 d1 50 5c 3d ad 74 9a 3b 73 6f 96 bd e4 7f b7 3d
       0.05378801 0.004713616 -0.07345476 0.0895994
000350 ea 1a 01 bd 96 1a d3 3d ce b9 6a bd 0e a8 23 bd
       -0.031519808 0.10307805 -0.057306103 -0.03995519
000360 aa d5 4b bd ae c3 cd bb 2f 40 8b 3c d4 6e 41 bd
       -0.049764313 -0.0062794304 0.016998379 -0.047224835
000370 94 5e b5 3d 92 74 74 3d 0e ee 8a 3c 43 69 29 bd
       0.0885593 0.059681483 0.016959216 -0.04136015
000380 d3 3e 65 bd ff 44 1e 3d 8b f4 cb bb 23 52 61 bd
       -0.055968117 0.03864002 -0.00622422 -0.055009972
000390 2e 1b a0 3a 99 c0 17 3d 37 81 a2 3d 8e d8 00 3c
       0.0012215131 0.03704891 0.07934802 0.007864131
0003a0 28 5d 7b 3d d4 51 4e 3c 88 69 69 bc 30 2c c5 3d
       0.061368138 0.0125927515 -0.014246352 0.09627569
0003b0 04 0d 5c bd 61 0f 8f bd d1 46 41 3d fc e3 5e 3d
       -0.05372335 -0.06985355 0.047186676 0.05441664
0003c0 b2 05 71 bd a6 3a 84 bd d7 f3 47 3d cf 6b 15 bc
       -0.058843322 -0.06456499 0.04881653 -0.009119942
0003d0 dd df c3 bb b0 bb 9a bd 9d 7b 74 3d 5a f2 40 bb
       -0.0059776143 -0.0755533 0.0596882 -0.0029441328
0003e0 98 3a 4e 39 d1 d0 5b bc 2e e9 60 3d 22 0f 23 3d
       0.00019667519 -0.013416485 0.054909877 0.039809354
0003f0 73 7a cc 3d 97 d2 73 bd 1b bb 1c 3d 02 82 3b bd
       0.09984293 -0.059527006 0.038264375 -0.045778282

linear3.weight f4 [512, 256]
000000 47 7c b5 3c b5 83 d3 3d 72 78 7c 3d 02 a2 88 3d
       0.022153987 0.103278555 0.061638303 0.066715255
000010 a0 e3 d1 bc ba 82 db 3c e4 8f b3 3d 2a c3 58 3c
       -0.025621235 0.026795734 0.08767679 0.0132301245
000020 70 ae 1c 3d 45 2e 18 3d 0c e8 88 3d 90 88 31 3d
       0.038252294 0.0371535 0.066848844 0.043343127
000030 ad d8 c6 3d fe 14 ac 3d 24 69 f7 ba b0 be 64 bd
       0.097092964 0.084024414 -0.0018875939 -0.055845916
000040 91 66 9e 3d 11 bd 41 bc 2f 38 26 bc 09 b7 47 bd
       0.07734407 -0.011824862 -0.010145231 -0.04875854
000050 78 85 bb 3d 01 cc 7a 3d 27 96 96 3d 81 5f 95 3c
       0.091563165 0.06122971 0.07352858 0.018234016
000060 3e 9a 6e 3d 25 82 37 3d 99 8b d9 3c a7 83 0b 3d
       0.058252566 0.04480185 0.026555823 0.0340611
000070 72 aa 57 3c cf d5 63 3d b5 0e 80 bb 4c ff dd bc
       0.013163196 0.055623826 -0.003908003 -0.027099274
000080 de 81 16 bd 36 b6 ac 3d ee b2 12 3d 64 93 38 3c
       -0.036744945 0.084331915 0.035815172 0.011265609
000090 b2 76 4b 3b 18 49 b4 3d 88 46 96 3d 0e 05 4c 3c
       0.003104609 0.08803004 0.073376715 0.012452377
0000a0 46 ed 24 3d 21 bf a8 3d 11 bc dc 3b 4d bb 14 3d
       0.040265344 0.0823958 0.0067362865 0.036311436
0000b0 f0 9e dc 3c 27 6d da 3c a5 48 17 3d ca 93 07 3d
       0.026931256 0.026663376 0.036934514 0.033099927
0000c0 ec 97 82 bd a1 86 44 3c 34 b8 41 bd 3b 2f 16 3d
       -0.06376633 0.011994989 -0.04729481 0.036666136
0000d0 65 a8 85 3d ff 5f ac 3b de a6 d4 3d 31 ec 3c 3d
       0.06526259 0.005260467 0.1038339 0.046123687
0000e0 a5 e6 81 3c 42 12 33 3d 4f 68 3e 3d c9 b4 c2 bc
       0.01585705 0.043718584 0.046486195 -0.023767846
0000f0 5a 62 90 3d 87 22 c3 3b f9 cb f5 3b 56 40 c3 3d
       0.07050009 0.0059550437 0.007501122 0.095337555
000100 85 84 bf 3b 98 18 5b 3d 63 82 72 3d 3c 57 02 bc
       0.005844655 0.05349025 0.059206378 -0.007955369
000110 ad 49 a5 3b 1e 4b a5 bc 53 d9 da 3d 58 ad 7a bb
       0.005044183 -0.02017742 0.106859826 -0.0038250294
000120 66 9b 10 3d 02 7e 8f bc 5e 9b 70 bd d2 4a f2 3c
       0.03530445 -0.01751614 -0.05874192 0.029576693
000130 41 d0 ec bc 3a 20 96 3b b5 e2 e8 3d 15 d3 98 bc
       -0.028907897 0.0045814784 0.11371366 -0.01865534
000140 6a 46 81 3d 58 11 d6 3c dd 89 c7 3d 47 ed 11 3d
       0.063122585 0.026131317 0.09743092 0.035626676
000150 03 7e eb 3c 39 5e 51 bc ad 32 b3 3a 91 5e d1 bc
       0.02874661 -0.012778812 0.0013671719 -0.025557788
000160 a2 f4 d2 3c e6 64 ae 3d af f3 55 bd 87 05 ac 3d
       0.025751416 0.085153386 -0.052234348 0.08399492
000170 c7 47 23 3c d7 3b d4 bc 1c 1e 80 bd cb a3 6f 3d
       0.0099658435 -0.02590744 -0.06255743 0.058505815
000180 77 17 4d bd b0 f3 61 3d e1 04 36 bc 59 a9 7f 3c
       -0.050071206 0.05516404 -0.011109562 0.0156043405
000190 d7 08 22 3d 5c b4 9b bb 33 10 dc bb d6 01 a8 3d
       0.03955921 -0.004751725 -0.0067157983 0.08203475
0001a0 cd e7 c2 3d 7f 52 2d 3d d9 75 b7 3c 75 30 af 3d
       0.09516869 0.042315003 0.022395061 0.08554164
0001b0 75 5b a0 3d d8 fb 67 3d 2a 9f 05 bc c6 4f 14 3c
       0.07829944 0.05663666 -0.008155623 0.009052223
0001c0 46 f4 0e 3d 08 c3 81 bc 0c 75 2d bd 14 ef b2 3b
       0.034900926 -0.015840068 -0.042347953 0.0054606292
0001d0 47 03 57 3d 93 aa 21 bc e6 4f 96 3d 74 38 44 3d
       0.05249336 -0.009867328 0.07339458 0.0479054
0001e0 13 50 03 3d 90 cc a3 ba a7 aa ec 3c 50 b2 1e bd
       0.032058787 -0.0012496877 0.028889967 -0.03874427
0001f0 8c 87 ae bc 1c 7e 4e bc ed af 9a 3c ab 9f 05 3d
       -0.021304868 -0.012603309 0.018882716 0.032622974
000200 d5 b2 24 bd 2b 2c be 3d 15 e0 0d bd 7a 0b c8 3c
       -0.04020961 0.09285768 -0.03463753 0.024419535
000210 17 f7 0a bd 98 c8 b4 3b 96 60 a3 3d 77 49 a2 3b
       -0.03392705 0.0055170767 0.07977407 0.0049526053
000220 83 c5 d9 bc 14 58 0e 3d b5 32 5c 3d 45 6f c8 3d
       -0.026583439 0.034751967 0.053759295 0.09786848
000230 10 65 a3 3d 21 f6 3c bd 25 8d 18 3c a0 b6 12 3d
       0.079782605 -0.046133164 0.009310995 0.035818696
000240 77 67 a8 3c f3 c8 00 3d ac 4b 16 bd 11 13 90 bd
       0.020557148 0.03144164 -0.03669326 -0.07034887
000250 c6 67 81 3d 28 cf b1 bc d3 67 89 3c c1 04 d6 3b
       0.06318621 -0.021705225 0.01677314 0.0065313284
000260 71 57 cc 3d 33 ec 51 bd e9 89 d8 3d 68 fa 77 bc
       0.099776156 -0.051250648 0.10573179 -0.015135385
000270 ad 55 60 3d a6 0b 0d bd 1b b9 66 bc 44 e0 94 bb
       0.054769207 -0.034434937 -0.0140822185 -0.004543336
000280 64 96 19 3d f2 a8 6b bd eb 3b fd 3c e6 23 8a 3d
       0.03749694 -0.057534166 0.03091236 0.06745128
000290 bf 68 d0 ba 62 1f d7 3d 6d ab 85 3d 5a 39 23 bd
       -0.0015900357 0.10504033 0.065268375 -0.039849617
0002a0 43 f0 14 3d f2 4c 95 bc 54 b7 51 3d b0 d1 5d bc
       0.036361944 -0.018225167 0.051200226 -0.013538763
0002b0 20 da 2f ba 89 f0 a6 3d 97 71 85 bd 8c 05 86 3d
       -0.00067082234 0.08151347 -0.06515806 0.06544027
0002c0 a1 54 12 bc 86 a9 d5 3d d3 b4 78 3d 05 c7 1b 3d
       -0.00893131 0.10432725 0.060719322 0.038031597
0002d0 6b e1 2e 3d c7 25 10 3d 94 f1 dc bd d8 3c 4d bd
       0.042695444 0.035192277 -0.10788265 -0.050106853
0002e0 a8 43 b2 3c 6f ad 5f b9 b4 df c1 bc c2 3a d4 bc
       0.021760777 -0.00021331546 -0.02366624 -0.025906924
0002f0 1a 37 9c 3c b7 20 69 bd 0f dd 95 3d 38 fa 9e 3b
       0.019069243 -0.056915965 0.07317554 0.0048516057
000300 95 1f 1d bd 73 c1 12 bc f5 85 7a 3d 2d e4 ec bd
       -0.038360197 -0.008957255 0.061162908 -0.115669586
000310 bd 83 f9 3c 84 16 80 3d 58 95 7a bd 45 79 6f 3d
       0.030458326 0.062542945 -0.06117758 0.05846526
000320 82 be 27 3d 42 45 df bc 63 8e 10 3d 8f 66 c6 bc
       0.040953167 -0.027254704 0.03529204 -0.024218826
000330 2b ab 99 bc a8 67 c1 3a 29 44 84 3d 26 ec 5c bd
       -0.018758377 0.0014755623 0.06458313 -0.053936146
000340 c6 44 57 bc c0 16 30 3c fe a8 82 bc f6 d4 a9 3d
       -0.013138955 0.0107476115 -0.015949722 0.08292572
000350 31 af f5 bc 69 e1 60 3b db 5d 34 3c 78 c6 54 bd
       -0.029990764 0.0034314042 0.011008705 -0.051947087
000360 ad c9 6e bb 02 30 e2 bb 0d 1a 0c bb f5 bc 48 bd
       -0.0036436126 -0.0069026956 -0.0021377832 -0.04900833
000370 59 c4 9e 3d 8a ce 72 3c 31 89 c8 3c 34 77 63 3d
       0.07752294 0.014819751 0.02447948 0.055533603
000380 c6 e8 87 3b 7f 62 86 3d 95 15 13 3d b3 55 bc 3c
       0.004147622 0.065617554 0.035909254 0.022990083
000390 9e a0 2b bd c4 22 21 3d 18 22 02 3d 7b fe 1d 3d
       -0.041901223 0.039339796 0.031770796 0.03857277
0003a0 72 97 bb 3d 43 21 ef bc 72 88 b9 3d 26 96 50 3d
       0.09159745 -0.029190665 0.09059228 0.050924443
0003b0 69 fe 36 3d af 4a 14 3d b6 c4 a4 3a e0 d6 45 3d
       0.04467622 0.036204036 0.0012570831 0.048300624
0003c0 61 b2 43 bd 9e 82 0b 3d 9e 72 af 3d 37 a7 b2 3d
       -0.047777537 0.034060113 0.08566783 0.087233
0003d0 a6 22 23 bd e4 bf 22 bd b7 09 f3 3c 20 53 ee 3c
       -0.039827965 -0.039733782 0.029667718 0.029092371
0003e0 89 55 16 3d 45 e5 55 bc d8 ca 1d bd 40 00 1a bc
       0.036702666 -0.01305515 -0.038523525 -0.009399474
0003f0 09 e1 92 3d 07 24 5d 3d 1f c2 27 bc 85 db b2 3d
       0.07171828 0.053989436 -0.010239153 0.08733276

linear3.bias f4 [512]
000000 40 a7 9d 3d b3 4f 45 3d 9a 54 25 3d 25 0c dd bc
       0.07697916 0.04817171 0.040363885 -0.02698333
000010 90 d6 99 3d e4 f9 a8 bc 9a 3d c0 3c 02 86 1c 3d
       0.07511628 -0.02062697 0.023466874 0.038213737
000020 dc 65 08 3d 90 9b bf 3d 85 9e 0c 3d af 4c 3c bd
       0.033300266 0.09355843 0.034330864 -0.04597157
000030 2f b2 3a 3d 0c fe fa 3c 98 42 9e 3d ce 39 bf bc
       0.045580085 0.030638717 0.077275455 -0.023342993
000040 ee 91 d0 3a 40 7d 9c 3d 2c b2 af bc 7a 7a 88 3d
       0.0015912631 0.07641077 -0.021447264 0.066639856
000050 d1 d3 cb bb 6b a8 c9 ba b4 0e af 3a 99 05 f7 3c
       -0.006220319 -0.0015385275 0.0013355822 0.030154036
000060 7b ff 6e bc 91 5a 83 3d a2 af 80 bc 73 f3 1b bc
       -0.0145872785 0.064137585 -0.015708748 -0.009518492
000070 c8 48 7e 3d 95 39 a9 3c 3a f7 36 3c 70 a0 5d bb
       0.06208113 0.02065734 0.011167342 -0.0033817552
000080 ef 91 38 3d f3 50 0f bb fb f4 aa 3c c5 d7 bd 3b
       0.045061048 -0.0021868318 0.020868769 0.005793544
000090 94 db 75 3d 49 00 ad 3d 6c d1 0a bd 3a ea 1c bc
       0.06002386 0.0844732 -0.033891127 -0.009577328
0000a0 7a ef dd bc 5f 38 9f bc a8 8f 84 bc 38 86 ba 3c
       -0.02709173 -0.01943606 -0.016181782 0.022769079
0000b0 db 6f 97 3d b5 37 cb bb 8f 0c 40 3d d3 0d 41 bd
       0.073943816 -0.006201709 0.046886977 -0.047132324
0000c0 28 a4 f0 3c d9 0b d7 3b b4 37 41 3c 79 1f 4d 3c
       0.02937515 0.0065626916 0.011793066 0.012519711
0000d0 bf 99 59 3d 58 4b f1 3b b1 18 1b 3c 88 8c 72 3d
       0.05312514 0.007363718 0.009466336 0.059216052
0000e0 ba 16 b9 bc b5 70 b7 3c e3 5a 80 3d e5 4e e8 bc
       -0.022593845 0.02239261 0.06267335 -0.028357932
0000f0 a8 54 fb 3c df 00 0f bd 5d 8a b0 3c 32 88 ce 3c
       0.030680016 -0.03491294 0.021550352 0.025211427
000100 65 48 08 bc 57 e9 3d 3d d5 fe f5 bc 64 ad 7e 3d
       -0.008318041 0.04636511 -0.03002874 0.062177077
000110 14 30 77 3d c0 88 5b 3d e0 72 4c 3d 6a a9 83 3d
       0.060348585 0.05359721 0.04991424 0.064287975
000120 ec 1c 8b 3d 1a be 6a bd 39 cf 1d bd 51 90 9c 3d
       0.06792626 -0.0573102 -0.0385277 0.07644714
000130 5d 3d 10 3d ad fa dc bc 38 0f 2b 3d e3 68 72 3d
       0.03521477 -0.026975 0.04176256 0.05918206
000140 29 0f a6 3d 85 f0 0d 3c 13 f8 45 3d f7 bc 85 3d
       0.0810836 0.008663301 0.048332285 0.06530183
000150 26 4b a8 3c 4a 52 58 3d c6 35 02 3c d8 f0 14 3d
       0.020543646 0.052812852 0.007947391 0.0363625
000160 13 c3 df ba a1 83 d5 bc 1d 6c 82 3d c7 0f 0c 3d
       -0.0017071686 -0.026063742 0.06368277 0.034194734
000170 4c c9 6d 3d 95 2d 4c 3d 5a d6 b5 3b 3d 19 d6 3c
       0.0580533 0.049848158 0.0055492343 0.026135081
000180 c1 2a ee 3c 13 24 3f bd c0 7f bf ba 10 39 e4 3c
       0.029073121 -0.046665262 -0.0014610216 0.02785924
000190 80 6e 6c 3d c4 a9 48 bc ec f8 48 3d 03 be bb bc
       0.05772257 -0.0122475065 0.049065515 -0.022917753
0001a0 18 d5 a8 3a 87 7f 8f 3c d5 6d 82 3d af f1 4f bd
       0.001288089 0.017516864 0.06368605 -0.050767597
0001b0 d6 fd 04 3c c0 e7 b4 3c fa 80 dc 3c cb af 94 3d
       0.00811716 0.022083163 0.02691697 0.07260092
0001c0 15 80 0d 3d 6c 8e 34 3d 06 2a 91 3d 77 b0 3c 3d
       0.034545977 0.044081137 0.070880935 0.046066727
0001d0 3c 1c 33 bd 55 8d 59 3d 62 77 6a 3c fd 8d a4 3d
       -0.0437281 0.0531133 0.01431069 0.080348946
0001e0 17 09 bb 3c 51 91 71 bd fe f1 fb 3c d3 f4 dd bc
       0.022831483 -0.058976475 0.03075504 -0.02709428
0001f0 8f 5f aa 3d 36 87 0b bd c1 29 6d bc 2a 51 05 bd
       0.083190076 -0.034064494 -0.014475287 -0.032548107
000200 dc b7 ec bc 99 df bb 3b 43 eb 69 bd c6 f3 48 3c
       -0.028896265 0.005733442 -0.05710913 0.012265151
000210 68 16 b1 3c a3 72 19 bd 78 de a8 3d 19 c0 82 3d
       0.02161713 -0.03746284 0.082455575 0.06384296
000220 09 c8 4f bc ff b4 03 3d 77 93 fc 3c ce 09 80 3d
       -0.012681969 0.032155033 0.030832035 0.0625187
000230 fe f4 4d 3d 34 f3 75 bd 23 b4 88 bb 3f 94 c4 bc
       0.05028247 -0.06004639 -0.0041718646 -0.02399647
000240 b9 a7 05 bd 51 66 03 bd f2 6b 9f 3d 37 9d e3 3c
       -0.032630656 -0.03208 0.07784261 0.027784927
000250 49 3e 1a bd 28 8a c5 3c cd 5f e4 3b 40 1f 3b bc
       -0.037657056 0.02411373 0.006969428 -0.011421025
000260 3b d5 97 3d be 14 9a 3d 5d 88 84 3d 3e 96 61 bc
       0.07413717 0.075234875 0.06471322 -0.013768731
000270 02 71 42 3d ed d6 3b bb b0 be 9f bc 1c a7 1d bc
       0.047471054 -0.0028662041 -0.019500107 -0.0096223615
000280 96 c8 bd 3c 2a f1 76 3d 8b 93 71 3d f5 9d e7 3c
       0.023166936 0.060288586 0.0589786 0.028273562
000290 4f fa 8f 3d 49 cf df bc c9 be 54 3d 90 b2 1c bd
       0.070301645 -0.027320521 0.05193976 -0.038256228
0002a0 11 d8 2f 3d f7 cc 62 3c 4d c6 5b bd 6f a9 91 3c
       0.042930666 0.013842813 -0.05365591 0.017780988
0002b0 57 05 6a 3d 1f a8 a1 bc 41 10 ca 3c 04 78 d9 3c
       0.057134 -0.019733487 0.024665954 0.026546486
0002c0 9e 44 5c bc e3 7b 80 3d 27 c0 e0 3c 29 d8 1e bd
       -0.013444094 0.062736295 0.027435375 -0.038780365
0002d0 a6 fc 69 bc cd c5 56 bc a3 67 70 3d ea 68 0b 3c
       -0.0142814275 -0.013108683 0.058692586 0.0085089
0002e0 4e 72 29 3d 03 7f 62 bc 08 0f 3e bc 8e c3 d3 bc
       0.041368775 -0.013824227 -0.011600263 -0.025850084
0002f0 fc 5b 8b bc f8 44 12 bb 78 48 ed 3c 46 87 df 3c
       -0.017011635 -0.002231894 0.02896522 0.027286183
000300 37 3b f0 3b ac 9f 61 bc bf 8c c1 3c 36 75 9a bc
       0.0073312777 -0.013770979 0.023626683 -0.018854719
000310 e7 ac f8 bb 0f a0 00 3d b1 c3 49 3d 79 68 16 bb
       -0.007588971 0.031402644 0.04925889 -0.0022950454
000320 cf 1f ff bc 85 75 8a 3d 91 16 9b 3d fb f1 95 bc
       -0.031143097 0.06760696 0.075726636 -0.018303862
000330 e8 ba 4d bd 35 06 cd bb 13 fa b4 bc 9f 5b b2 3d
       -0.050227076 -0.0062568435 -0.0220919 0.087088816
000340 db fe a8 3d 30 57 39 bd c4 ce 42 3d 8d 56 f2 3b
       0.08251735 -0.045249164 0.04756047 0.0073955716
000350 e4 40 b8 3d b5 ea 85 3d eb 04 72 3d 18 d2 0c 3d
       0.08996752 0.065389074 0.05908672 0.03438005
000360 b1 4a 32 bc 4f c2 3e 3d ed b9 fc bc db 46 f8 3c
       -0.010882066 0.046572026 -0.030850375 0.030307224
000370 2b 1c f3 3c b9 91 ff 3c 9b 82 2f 3d fd 87 5b 3d
       0.029676517 0.031197416 0.042849164 0.053596485
000380 e0 a6 4e 3d 0c c5 23 3d b8 96 12 3c bc 18 e8 3b
       0.050452113 0.03998284 0.008947067 0.0070830267
000390 51 b4 15 3c f4 f8 dc 3c 74 53 33 3c 86 24 c4 bb
       0.009137229 0.026974179 0.01094519 -0.0059857992
0003a0 44 82 ac 3b 1d 9b d6 bc ec 18 07 bd 14 ec 95 3d
       0.0052645523 -0.02619701 -0.03298275 0.07320419
0003b0 a5 a2 79 bb fc ec 50 bb 9f 48 f5 bc ba 8b 01 3b
       -0.0038091328 -0.0031879535 -0.029941855 0.0019767121
0003c0 b7 ea 5d 3d 28 4e a7 bc ed 6a 38 bb 79 82 ba 3b
       0.05417892 -0.02042301 -0.0028139905 0.005691823
0003d0 99 a2 80 3d 40 b7 31 bb a7 89 80 3d 6f 1a 32 3d
       0.06281013 -0.0027117282 0.06276255 0.04348224
0003e0 3c 8e 6b 3d b6 a2 8b 3c d1 35 05 bd 6d 96 b1 3d
       0.057508692 0.01704536 -0.032522026 0.086712696
0003f0 06 68 7e 3d 83 8c 9d bb 55 b4 32 bd 1c 4a da 3c
       0.062110923 -0.00480801 -0.04362901 0.026646666

linear4.weight f4 [128, 512]
000000 72 62 06 bd ac 04 fd bc 38 5b 5b 3c a6 e5 da bc
       -0.03280873 -0.030886017 0.013388447 -0.026720833
000010 c2 b3 8d bc 40 42 25 3a 73 36 c3 bc 2c 86 8b 3c
       -0.01729763 0.00063041225 -0.023829674 0.017031752
000020 97 15 cc bc f4 ed 00 bd a2 4e 9b 3c 10 4a 75 bb
       -0.024912639 -0.03147693 0.018958393 -0.0037428178
000030 88 48 8f 3b aa fd ba 3c 30 ee 82 3b f7 23 2e 3d
       0.00437266 0.022826035 0.0039956793 0.042514767
000040 40 b7 df bc 20 27 5a 3b bc 22 2d bd 28 8d 86 3b
       -0.02730906 0.003328748 -0.042269453 0.0041061826
000050 36 e9 de 3c a8 ef bf bc 44 6f 90 3c f2 b6 bb 3c
       0.027210813 -0.023429707 0.01763118 0.022914384
000060 b6 7c a5 bc c2 aa a1 3c 8a ba ed bc 65 ae 23 3d
       -0.020201068 0.019734744 -0.029019613 0.039961237
000070 9c e3 22 3c 8a 1e ed 3c 66 96 db 3c 47 98 26 bd
       0.009941962 0.028945226 0.026805114 -0.040672567
000080 ec 44 6b bc e6 7c f8 3c a1 cc 33 3d 74 75 d1 bc
       -0.014359694 0.030332994 0.04389632 -0.025568701
000090 2d 16 e3 bc 50 d2 b4 bb 15 99 0d bd 68 ef f4 bb
       -0.027720535 -0.0055182353 -0.03456982 -0.0074748285
0000a0 7d f2 2a bd 9f e3 32 bd 00 83 8e 39 1a 7d c1 3c
       -0.04173516 -0.043674108 0.00027181953 0.023619223
0000b0 30 a3 e7 bc e0 26 95 ba 92 0b 05 bd ce 26 d2 3c
       -0.028276056 -0.0011379384 -0.032481737 0.02565327
0000c0 c8 8f b4 3b 62 e0 f9 bc 38 f5 a5 bc 83 cc 08 bd
       0.005510304 -0.030502502 -0.020258531 -0.033398163
0000d0 c0 f4 f2 3b 30 05 57 bc 80 e5 a2 39 60 88 6d 3b
       0.0074144304 -0.013123795 0.0003107004 0.0036244616
0000e0 14 ba 38 3c 62 e5 0d bd 29 81 2c bd cf 88 19 3d
       0.011274833 -0.034642585 -0.042115364 0.037483986
0000f0 74 0f 17 bd 90 c6 71 3c 58 a1 c5 3b 45 85 1a bd
       -0.03687997 0.014756814 0.0060311966 -0.037724752
000100 38 71 63 3c 44 39 06 bd ac 8d 5a 3c 1f 3d 1b 3d
       0.013881974 -0.032769457 0.013339441 0.037900086
000110 90 a7 36 3b 7f 7d 34 3d 50 8f 24 3b 40 d5 b9 bc
       0.002787087 0.044064995 0.0025109835 -0.022684693
000120 a9 18 1f 3d 0e 7f 29 bd 03 72 0c 3d 53 13 2f 3d
       0.038841877 -0.041380934 0.034288418 0.04274304
000130 87 35 fd bc cc 9b 19 bc 86 df a3 3c 89 29 8c bc
       -0.030909313 -0.009375524 0.020004045 -0.01710965
000140 1a 70 f5 3c 7e a4 ed bc f9 00 91 bc 4c e6 c1 bc
       0.02996068 -0.0290091 -0.01770066 -0.023669384
000150 09 f6 20 bd 39 4e 2a 3d 1f 98 15 3d 1c 4e 4e 3c
       -0.039297137 0.041578505 0.036522027 0.012591865
000160 6c 84 75 bc c0 6f 7f 3c 70 f0 52 bb a9 e1 d8 bc
       -0.014985185 0.015590608 -0.003218677 -0.02647479
000170 40 a1 fc ba 86 c3 89 bc ac 0f 05 bd 68 93 a1 3b
       -0.001927413 -0.016816866 -0.03248565 0.0049309023
000180 e9 30 2f 3d a2 ad ee 3c e7 a6 31 3d 42 75 ae 3c
       0.042771254 0.029135529 0.04337206 0.021296147
000190 16 5e 0a bd c0 3f 87 3c 40 e7 45 3c fd 6a 2f 3d
       -0.033781134 0.01650989 0.01207906 0.04282664
0001a0 bb be 06 3d 18 1f bf bb d6 83 6a bc 5e 15 a3 3c
       0.03289674 -0.005832564 -0.014313659 0.01990765
0001b0 2a 9d 6a bc 90 85 3c 3b 68 c1 b7 bc a6 8c 9b 3c
       -0.014319697 0.0028766133 -0.02243109 0.018987965
0001c0 a2 83 b9 bc 92 b9 f1 3c 98 f7 f5 3b b2 18 28 bd
       -0.022645775 0.029507432 0.007506322 -0.041039176
0001d0 c0 b4 81 bc d7 a0 01 bd 3a 0c ee 3c 48 1f e1 bb
       -0.015833259 -0.03164753 0.029058564 -0.006870184
0001e0 d0 6b 99 bb a3 c3 04 3d cf f9 14 3d be af 92 3c
       -0.0046820417 0.032413136 0.03637105 0.017906066
0001f0 00 9c 1c ba 1a b3 f2 3c 5a 43 d1 3c d1 d6 1e bd
       -0.00059741735 0.029626418 0.025544811 -0.038779084
000200 4c 92 2f 3c 2a 61 31 bd 09 f7 13 3d 94 59 ff bc
       0.010716032 -0.043305553 0.036124263 -0.031170644
000210 fe 02 04 bd 00 c5 73 3c 4b a2 05 3d 68 88 80 3b
       -0.032229416 0.014878511 0.032625478 0.003922511
000220 38 42 86 bb c0 04 e1 3a d2 67 bb 3c 0b 42 f5 bc
       -0.0040972494 0.0017167553 0.022876654 -0.029938718
000230 00 bc cc 3b 80 26 f1 3b 7b 9b 2d 3d 5f 88 2c 3d
       0.0062479973 0.007359326 0.042384606 0.04212224
000240 b4 4e 26 3c bd d3 28 3d 45 ce 2a 3d 8b e4 09 bd
       0.0101506 0.041217554 0.04170062 -0.03366522
000250 b3 1a 27 bd f2 f5 67 bc 5f cc 01 bd 5e 11 c2 bc
       -0.040796947 -0.014157759 -0.031689044 -0.023689922
000260 fe 6a fb bc f0 86 49 bb 76 8d c8 3c e8 6a e1 3b
       -0.030690666 -0.0030750595 0.024481516 0.0068791993
000270 7a 58 0f bd e7 60 11 bd ab f5 12 3d 7c a3 06 bc
       -0.034996487 -0.035492804 0.03587882 -0.008217689
000280 90 f4 27 bd a0 f2 bf 3b 00 b4 99 3a 9c c8 82 bc
       -0.041004717 0.0058577806 0.0011726618 -0.015964799
000290 43 20 db bc 0e b6 c9 3c 96 1c cd 3c 6a 5b a8 3c
       -0.026748782 0.024622943 0.025038045 0.020551402
0002a0 02 40 7e bc e4 20 12 3c d7 e5 0b 3d c0 c4 fb bc
       -0.01551819 0.008918975 0.03415474 -0.030733466
0002b0 15 eb 31 3d 24 fd 65 3c 4e 9c d3 3c 71 e4 30 3d
       0.043437082 0.014037404 0.025831368 0.04318661
0002c0 c5 d6 0b 3d d5 80 2f 3d b0 50 29 3b 75 bd 05 bd
       0.034140367 0.042847473 0.0025835447 -0.032651383
0002d0 30 24 2a bb 26 1a e9 3c a0 45 40 3b 12 c2 a2 3c
       -0.002596151 0.028454851 0.0029338375 0.01986793
0002e0 04 d5 4b 3c 52 01 b9 3c 36 26 a8 3c 7b 25 b2 bc
       0.012440924 0.022583637 0.020526033 -0.021746388
0002f0 77 f8 9f bc 9a 45 26 bd 68 c9 a6 bc a6 0a ea bc
       -0.019527657 -0.04059372 -0.02035971 -0.02856953
000300 52 a0 a6 3c 4a 20 c9 3c 08 17 98 3b 13 c2 a7 bc
       0.020340119 0.02455153 0.0046414174 -0.020478284
000310 9f f0 23 bd a4 fa 07 bc c4 38 5f 3c da 06 d1 3c
       -0.040024396 -0.0082995035 0.013624374 0.025515962
000320 5a 5e c1 3c 11 f2 1a 3d 38 c4 0c bc 76 af a7 3c
       0.02360456 0.03782851 -0.008591704 0.020469408
000330 58 27 0c bd 53 a0 ee bc f4 67 27 bd 78 6c 54 bc
       -0.03421721 -0.029129183 -0.04087062 -0.012965314
000340 1d 85 aa bc e3 12 31 bd f0 de 25 bd e2 5d 9a 3c
       -0.020815426 -0.043230902 -0.040495813 0.018843595
000350 9c 78 6f bc 30 91 06 3b 08 82 00 3c a0 bc 56 3c
       -0.014616158 0.0020533316 0.007843502 0.013106495
000360 a2 91 d8 3c 5a 7d bc bc 60 9f 30 bc 20 3e c1 3a
       0.02643663 -0.023008991 -0.010780185 0.0014743246
000370 55 d1 cf bc eb 97 18 3d b7 1f 32 3d cc 0b 27 bd
       -0.025368372 0.037254255 0.043487277 -0.040782735
000380 c6 57 c5 bc e0 31 06 bd c8 35 b7 3b 6a de 2f bd
       -0.024089705 -0.03276241 0.005591128 -0.04293672
000390 ba ab 7e bc 9a 3d b8 3c db 7f 1b 3d 1a 8a f0 3c
       -0.0155438725 0.022490311 0.03796373 0.029362727
0003a0 00 c7 69 bc 9b 95 21 3d 98 34 8c bb 90 81 cc bb
       -0.014268637 0.039449316 -0.0042787306 -0.006241031
0003b0 9c 9e 3d 3c 8f 4d e8 bc 38 7a 21 bc 8a c7 aa bc
       0.01157346 -0.028357295 -0.009855799 -0.0208471
0003c0 d6 01 b5 3c 2b b9 32 bd 3c 8b 70 3c 82 95 df 3c
       0.022095602 -0.04363362 0.014681634 0.02729297
0003d0 7f 3e 23 bd 76 84 9e 3c 33 b8 14 3d 40 f1 4e bc
       -0.039854523 0.019350272 0.03630848 -0.012630761
0003e0 00 14 54 3a 00 e8 4d 3c 7a 03 de 3c fa ec 10 bd
       0.00080901384 0.01256752 0.027101267 -0.03538225
0003f0 e4 44 33 3c f0 55 41 3c 35 d9 b0 bc 80 c0 36 3b
       0.010941718 0.011800274 -0.021587947 0.0027885735

linear4.bias f4 [128]
000000 3f ea 33 bd 77 c3 ef bb 64 65 bb bc 66 0b 64 ba
       -0.043924566 -0.0073170024 -0.022875495 -0.0008699208
000010 d3 53 42 3d 5c 83 a7 3c e0 ad 3b bc 7c 3e e1 b9
       0.047443222 0.02044838 -0.011455029 -0.000429619
000020 cf f0 53 bb 3c bd 11 3d 36 a4 92 bc 71 d4 e8 3c
       -0.0032339578 0.03558086 -0.017900568 0.028421612
000030 8b 8a 58 3c 39 1e 56 3c 90 a3 7d bc ec 53 a5 bc
       0.013216625 0.013068729 -0.015480891 -0.020181619
000040 ea 5f 3b bb 64 64 17 bc da f7 ab bc b0 9e 53 3d
       -0.0028591105 -0.009240244 -0.020992208 0.051665008
000050 1d 02 5c 3b 65 d9 05 3d 33 ae 2e bc 96 19 66 3c
       0.0033570596 0.032678027 -0.0106616495 0.014044186
000060 60 7a 6e bc 37 37 9c 3c ea 1d e3 3b 44 1a 16 3d
       -0.014555544 0.019069297 0.0069310563 0.036646143
000070 21 fd 78 3c ad 6d 44 bc d6 f6 56 3d e5 24 5a bd
       0.015197069 -0.011989039 0.052481495 -0.05325784
000080 3d 24 b9 3c 17 ea ea bb c6 b6 1d bd 6d bf ff 3c
       0.022600288 -0.007169019 -0.038504384 0.031219209
000090 52 09 11 bd 2f 9c c1 3c a2 d6 37 3c 94 00 52 bc
       -0.03540928 0.023634044 0.011220606 -0.012817521
0000a0 16 5d 15 3d 6b a7 12 3d 7b 28 42 bc ea 46 1a 3c
       0.036465727 0.035804193 -0.011850472 0.009416321
0000b0 e2 01 0e bd 35 c0 b4 3b 72 2f 3a 3d cd bb 1a 3d
       -0.034669764 0.005516077 0.045455404 0.037776757
0000c0 e1 cc 50 bc 88 1c b6 3b c5 bd ae bb 8b ec 94 bb
       -0.012744159 0.0055576004 -0.005332681 -0.0045447997
0000d0 28 74 4b 3d d9 18 05 bd 09 70 5d ba fd 07 cf 3b
       0.049671322 -0.0324944 -0.00084471755 0.006318091
0000e0 a4 3a bb 3c 2f f0 14 3d a3 c9 e7 bc af 51 12 3d
       0.02285511 0.03636187 -0.02829439 0.03572243
0000f0 f8 bd a1 bc 6a 42 98 3c db 5f 26 3d 16 16 31 bc
       -0.019743904 0.018586356 0.04061876 -0.010808488
000100 a1 4e 0d 3d a1 ad a7 3c c4 ff 2b 3d a7 c9 8d 3b
       0.034498814 0.020468535 0.041991964 0.0043270173
000110 64 4d 02 bc 9b 0b 56 bc e2 58 87 bc ac b5 61 ba
       -0.007953022 -0.01306429 -0.016521875 -0.000861014
000120 3f 23 0a 3d 8e 94 d9 bc bb 60 e6 bc 0f e3 6f 3c
       0.03372502 -0.026560094 -0.028122297 0.014641537
000130 f9 8c 6e 3c 64 22 48 3d ec 69 3c 3d cb bb 52 bc
       0.014559978 0.048860922 0.045999452 -0.012862156
000140 59 af 39 bc 03 78 af 3b 78 dd 19 3a 92 0e 3e 3d
       -0.01133331 0.0053548827 0.0005869488 0.046400614
000150 a5 10 eb bc ba 7c 33 3d 8d a0 1f bd 1c a4 66 3c
       -0.02869446 0.04382012 -0.038971473 0.014077213
000160 b8 f9 c7 3c 55 fc 01 bd ce f1 74 bc 7e 46 2c bd
       0.024411067 -0.031734783 -0.014950229 -0.042059414
000170 36 df 22 3d d5 1a 34 3d 94 6f 3e 3d 64 0c 98 3c
       0.03976365 0.0439709 0.046493128 0.018560596
000180 01 4d ad 3b b4 c4 c4 3c 55 f9 06 3d d8 63 37 3c
       0.0052887206 0.024019577 0.032952625 0.011193238
000190 09 0f 9e 3c 1e d1 08 3d 2d d2 d0 bc 9a b9 0e bd
       0.019294279 0.033402555 -0.025490845 -0.034844972
0001a0 21 4a 3a 3d 58 ef 80 3c 17 f3 5e 3c 8a 81 fe 3c
       0.04548085 0.015739128 0.013607762 0.031067628
0001b0 bd d3 08 bd 9f 88 9d 3b d9 03 67 3d b9 9c 62 3d
       -0.033405054 0.0048075463 0.056400154 0.055325244
0001c0 47 e1 40 3c 95 83 a3 3b 3c fd 22 bd 0a da 13 bc
       0.01177246 0.004990051 -0.039792284 -0.0090241525
0001d0 6b 33 f8 3c 86 38 f7 3c 60 39 19 3d 02 31 b8 3c
       0.030297955 0.03017832 0.037408233 0.022484306
0001e0 2f b3 52 3d f3 9d fc 3b c3 11 65 3d 2b e8 00 bb
       0.051440414 0.0077092587 0.055925142 -0.0019669633
0001f0 00 5f 48 bc 1b e5 ed bc 93 b6 69 3d 4f fd 55 bc
       -0.012229681 -0.02903991 0.057058882 -0.013060882
